…
I0223 11:38:56.541961  6396 net.cpp:322] The NetState phase (0) differed from the phase (1) specified by a rule in layer accuracy
I0223 11:38:56.542393  6396 net.cpp:58] Initializing net from parameters: 
name: "GoogleNet"
state {
  phase: TRAIN
  level: 0
  stage: ""
}
layer {
  name: "data"
  type: "Data"
  top: "data"
  top: "label"
  include {
    phase: TRAIN
  }
  transform_param {
    mirror: true
    crop_size: 227
    mean_file: "mean.binaryproto"
  }
  data_param {
    source: "img_train_lmdb"
    batch_size: 64
    backend: LMDB
  }
}
layer {
  name: "conv1/7x7_s2"
  type: "Convolution"
  bottom: "data"
  top: "conv1/7x7_s2"
  convolution_param {
    num_output: 64
    pad: 3
    kernel_size: 7
    stride: 2
    weight_filler {
      type: "xavier"
      std: 0.1
    }
    bias_filler {
      type: "constant"
      value: 0.2
    }
  }
}
layer {
  name: "conv1/relu_7x7"
  type: "ReLU"
  bottom: "conv1/7x7_s2"
  top: "conv1/7x7_s2"
}
layer {
  name: "pool1/3x3_s2"
  type: "Pooling"
  bottom: "conv1/7x7_s2"
  top: "pool1/3x3_s2"
  pooling_param {
    pool: MAX
    kernel_size: 3
    stride: 2
  }
}
layer {
  name: "pool1/norm1"
  type: "LRN"
  bottom: "pool1/3x3_s2"
  top: "pool1/norm1"
  lrn_param {
    local_size: 5
    alpha: 0.0001
    beta: 0.75
  }
}
layer {
  name: "conv2/3x3_reduce"
  type: "Convolution"
  bottom: "pool1/norm1"
  top: "conv2/3x3_reduce"
  convolution_param {
    num_output: 64
    kernel_size: 1
    weight_filler {
      type: "xavier"
      std: 0.1
    }
    bias_filler {
      type: "constant"
      value: 0.2
    }
  }
}
layer {
  name: "conv2/relu_3x3_reduce"
  type: "ReLU"
  bottom: "conv2/3x3_reduce"
  top: "conv2/3x3_reduce"
}
layer {
  name: "conv2/3x3"
  type: "Convolution"
  bottom: "conv2/3x3_reduce"
  top: "conv2/3x3"
  convolution_param {
    num_output: 192
    pad: 1
    kernel_size: 3
    weight_filler {
      type: "xavier"
      std: 0.03
    }
    bias_filler {
      type: "constant"
      value: 0.2
    }
  }
}
layer {
  name: "conv2/relu_3x3"
  type: "ReLU"
  bottom: "conv2/3x3"
  top: "conv2/3x3"
}
layer {
  name: "conv2/norm2"
  type: "LRN"
  bottom: "conv2/3x3"
  top: "conv2/norm2"
  lrn_param {
    local_size: 5
    alpha: 0.0001
    beta: 0.75
  }
}
layer {
  name: "pool2/3x3_s2"
  type: "Pooling"
  bottom: "conv2/norm2"
  top: "pool2/3x3_s2"
  pooling_param {
    pool: MAX
    kernel_size: 3
    stride: 2
  }
}
layer {
  name: "inception_3a/1x1"
  type: "Convolution"
  bottom: "pool2/3x3_s2"
  top: "inception_3a/1x1"
  convolution_param {
    num_output: 64
    kernel_size: 1
    weight_filler {
      type: "xavier"
      std: 0.03
    }
    bias_filler {
      type: "constant"
      value: 0.2
    }
  }
}
layer {
  name: "inception_3a/relu_1x1"
  type: "ReLU"
  bottom: "inception_3a/1x1"
  top: "inception_3a/1x1"
}
layer {
  name: "inception_3a/3x3_reduce"
  type: "Convolution"
  bottom: "pool2/3x3_s2"
  top: "inception_3a/3x3_reduce"
  convolution_param {
    num_output: 96
    kernel_size: 1
    weight_filler {
      type: "xavier"
      std: 0.09
    }
    bias_filler {
      type: "constant"
      value: 0.2
    }
  }
}
layer {
  name: "inception_3a/relu_3x3_reduce"
  type: "ReLU"
  bottom: "inception_3a/3x3_reduce"
  top: "inception_3a/3x3_reduce"
}
layer {
  name: "inception_3a/3x3"
  type: "Convolution"
  bottom: "inception_3a/3x3_reduce"
  top: "inception_3a/3x3"
  convolution_param {
    num_output: 128
    pad: 1
    kernel_size: 3
    weight_filler {
      type: "xavier"
      std: 0.03
    }
    bias_filler {
      type: "constant"
      value: 0.2
    }
  }
}
layer {
  name: "inception_3a/relu_3x3"
  type: "ReLU"
  bottom: "inception_3a/3x3"
  top: "inception_3a/3x3"
}
layer {
  name: "inception_3a/5x5_reduce"
  type: "Convolution"
  bottom: "pool2/3x3_s2"
  top: "inception_3a/5x5_reduce"
  convolution_param {
    num_output: 16
    kernel_size: 1
    weight_filler {
      type: "xavier"
      std: 0.2
    }
    bias_filler {
      type: "constant"
      value: 0.2
    }
  }
}
layer {
  name: "inception_3a/relu_5x5_reduce"
  type: "ReLU"
  bottom: "inception_3a/5x5_reduce"
  top: "inception_3a/5x5_reduce"
}
layer {
  name: "inception_3a/5x5"
  type: "Convolution"
  bottom: "inception_3a/5x5_reduce"
  top: "inception_3a/5x5"
  convolution_param {
    num_output: 32
    pad: 2
    kernel_size: 5
    weight_filler {
      type: "xavier"
      std: 0.03
    }
    bias_filler {
      type: "constant"
      value: 0.2
    }
  }
}
layer {
  name: "inception_3a/relu_5x5"
  type: "ReLU"
  bottom: "inception_3a/5x5"
  top: "inception_3a/5x5"
}
layer {
  name: "inception_3a/pool"
  type: "Pooling"
  bottom: "pool2/3x3_s2"
  top: "inception_3a/pool"
  pooling_param {
    pool: MAX
    kernel_size: 3
    stride: 1
    pad: 1
  }
}
layer {
  name: "inception_3a/pool_proj"
  type: "Convolution"
  bottom: "inception_3a/pool"
  top: "inception_3a/pool_proj"
  convolution_param {
    num_output: 32
    kernel_size: 1
    weight_filler {
      type: "xavier"
      std: 0.1
    }
    bias_filler {
      type: "constant"
      value: 0.2
    }
  }
}
layer {
  name: "inception_3a/relu_pool_proj"
  type: "ReLU"
  bottom: "inception_3a/pool_proj"
  top: "inception_3a/pool_proj"
}
layer {
  name: "inception_3a/output"
  type: "Concat"
  bottom: "inception_3a/1x1"
  bottom: "inception_3a/3x3"
  bottom: "inception_3a/5x5"
  bottom: "inception_3a/pool_proj"
  top: "inception_3a/output"
}
layer {
  name: "inception_3b/1x1"
  type: "Convolution"
  bottom: "inception_3a/output"
  top: "inception_3b/1x1"
  convolution_param {
    num_output: 128
    kernel_size: 1
    weight_filler {
      type: "xavier"
      std: 0.03
    }
    bias_filler {
      type: "constant"
      value: 0.2
    }
  }
}
layer {
  name: "inception_3b/relu_1x1"
  type: "ReLU"
  bottom: "inception_3b/1x1"
  top: "inception_3b/1x1"
}
layer {
  name: "inception_3b/3x3_reduce"
  type: "Convolution"
  bottom: "inception_3a/output"
  top: "inception_3b/3x3_reduce"
  convolution_param {
    num_output: 128
    kernel_size: 1
    weight_filler {
      type: "xavier"
      std: 0.09
    }
    bias_filler {
      type: "constant"
      value: 0.2
    }
  }
}
layer {
  name: "inception_3b/relu_3x3_reduce"
  type: "ReLU"
  bottom: "inception_3b/3x3_reduce"
  top: "inception_3b/3x3_reduce"
}
layer {
  name: "inception_3b/3x3"
  type: "Convolution"
  bottom: "inception_3b/3x3_reduce"
  top: "inception_3b/3x3"
  convolution_param {
    num_output: 192
    pad: 1
    kernel_size: 3
    weight_filler {
      type: "xavier"
      std: 0.03
    }
    bias_filler {
      type: "constant"
      value: 0.2
    }
  }
}
layer {
  name: "inception_3b/relu_3x3"
  type: "ReLU"
  bottom: "inception_3b/3x3"
  top: "inception_3b/3x3"
}
layer {
  name: "inception_3b/5x5_reduce"
  type: "Convolution"
  bottom: "inception_3a/output"
  top: "inception_3b/5x5_reduce"
  convolution_param {
    num_output: 32
    kernel_size: 1
    weight_filler {
      type: "xavier"
      std: 0.2
    }
    bias_filler {
      type: "constant"
      value: 0.2
    }
  }
}
layer {
  name: "inception_3b/relu_5x5_reduce"
  type: "ReLU"
  bottom: "inception_3b/5x5_reduce"
  top: "inception_3b/5x5_reduce"
}
layer {
  name: "inception_3b/5x5"
  type: "Convolution"
  bottom: "inception_3b/5x5_reduce"
  top: "inception_3b/5x5"
  convolution_param {
    num_output: 96
    pad: 2
    kernel_size: 5
    weight_filler {
      type: "xavier"
      std: 0.03
    }
    bias_filler {
      type: "constant"
      value: 0.2
    }
  }
}
layer {
  name: "inception_3b/relu_5x5"
  type: "ReLU"
  bottom: "inception_3b/5x5"
  top: "inception_3b/5x5"
}
layer {
  name: "inception_3b/pool"
  type: "Pooling"
  bottom: "inception_3a/output"
  top: "inception_3b/pool"
  pooling_param {
    pool: MAX
    kernel_size: 3
    stride: 1
    pad: 1
  }
}
layer {
  name: "inception_3b/pool_proj"
  type: "Convolution"
  bottom: "inception_3b/pool"
  top: "inception_3b/pool_proj"
  convolution_param {
    num_output: 64
    kernel_size: 1
    weight_filler {
      type: "xavier"
      std: 0.1
    }
    bias_filler {
      type: "constant"
      value: 0.2
    }
  }
}
layer {
  name: "inception_3b/relu_pool_proj"
  type: "ReLU"
  bottom: "inception_3b/pool_proj"
  top: "inception_3b/pool_proj"
}
layer {
  name: "inception_3b/output"
  type: "Concat"
  bottom: "inception_3b/1x1"
  bottom: "inception_3b/3x3"
  bottom: "inception_3b/5x5"
  bottom: "inception_3b/pool_proj"
  top: "inception_3b/output"
}
layer {
  name: "pool3/3x3_s2"
  type: "Pooling"
  bottom: "inception_3b/output"
  top: "pool3/3x3_s2"
  pooling_param {
    pool: MAX
    kernel_size: 3
    stride: 2
  }
}
layer {
  name: "inception_4a/1x1"
  type: "Convolution"
  bottom: "pool3/3x3_s2"
  top: "inception_4a/1x1"
  convolution_param {
    num_output: 192
    kernel_size: 1
    weight_filler {
      type: "xavier"
      std: 0.03
    }
    bias_filler {
      type: "constant"
      value: 0.2
    }
  }
}
layer {
  name: "inception_4a/relu_1x1"
  type: "ReLU"
  bottom: "inception_4a/1x1"
  top: "inception_4a/1x1"
}
layer {
  name: "inception_4a/3x3_reduce"
  type: "Convolution"
  bottom: "pool3/3x3_s2"
  top: "inception_4a/3x3_reduce"
  convolution_param {
    num_output: 96
    kernel_size: 1
    weight_filler {
      type: "xavier"
      std: 0.09
    }
    bias_filler {
      type: "constant"
      value: 0.2
    }
  }
}
layer {
  name: "inception_4a/relu_3x3_reduce"
  type: "ReLU"
  bottom: "inception_4a/3x3_reduce"
  top: "inception_4a/3x3_reduce"
}
layer {
  name: "inception_4a/3x3"
  type: "Convolution"
  bottom: "inception_4a/3x3_reduce"
  top: "inception_4a/3x3"
  convolution_param {
    num_output: 208
    pad: 1
    kernel_size: 3
    weight_filler {
      type: "xavier"
      std: 0.03
    }
    bias_filler {
      type: "constant"
      value: 0.2
    }
  }
}
layer {
  name: "inception_4a/relu_3x3"
  type: "ReLU"
  bottom: "inception_4a/3x3"
  top: "inception_4a/3x3"
}
layer {
  name: "inception_4a/5x5_reduce"
  type: "Convolution"
  bottom: "pool3/3x3_s2"
  top: "inception_4a/5x5_reduce"
  convolution_param {
    num_output: 16
    kernel_size: 1
    weight_filler {
      type: "xavier"
      std: 0.2
    }
    bias_filler {
      type: "constant"
      value: 0.2
    }
  }
}
layer {
  name: "inception_4a/relu_5x5_reduce"
  type: "ReLU"
  bottom: "inception_4a/5x5_reduce"
  top: "inception_4a/5x5_reduce"
}
layer {
  name: "inception_4a/5x5"
  type: "Convolution"
  bottom: "inception_4a/5x5_reduce"
  top: "inception_4a/5x5"
  convolution_param {
    num_output: 48
    pad: 2
    kernel_size: 5
    weight_filler {
      type: "xavier"
      std: 0.03
    }
    bias_filler {
      type: "constant"
      value: 0.2
    }
  }
}
layer {
  name: "inception_4a/relu_5x5"
  type: "ReLU"
  bottom: "inception_4a/5x5"
  top: "inception_4a/5x5"
}
layer {
  name: "inception_4a/pool"
  type: "Pooling"
  bottom: "pool3/3x3_s2"
  top: "inception_4a/pool"
  pooling_param {
    pool: MAX
    kernel_size: 3
    stride: 1
    pad: 1
  }
}
layer {
  name: "inception_4a/pool_proj"
  type: "Convolution"
  bottom: "inception_4a/pool"
  top: "inception_4a/pool_proj"
  convolution_param {
    num_output: 64
    kernel_size: 1
    weight_filler {
      type: "xavier"
      std: 0.1
    }
    bias_filler {
      type: "constant"
      value: 0.2
    }
  }
}
layer {
  name: "inception_4a/relu_pool_proj"
  type: "ReLU"
  bottom: "inception_4a/pool_proj"
  top: "inception_4a/pool_proj"
}
layer {
  name: "inception_4a/output"
  type: "Concat"
  bottom: "inception_4a/1x1"
  bottom: "inception_4a/3x3"
  bottom: "inception_4a/5x5"
  bottom: "inception_4a/pool_proj"
  top: "inception_4a/output"
}
layer {
  name: "inception_4b/1x1"
  type: "Convolution"
  bottom: "inception_4a/output"
  top: "inception_4b/1x1"
  convolution_param {
    num_output: 160
    kernel_size: 1
    weight_filler {
      type: "xavier"
      std: 0.03
    }
    bias_filler {
      type: "constant"
      value: 0.2
    }
  }
}
layer {
  name: "inception_4b/relu_1x1"
  type: "ReLU"
  bottom: "inception_4b/1x1"
  top: "inception_4b/1x1"
}
layer {
  name: "inception_4b/3x3_reduce"
  type: "Convolution"
  bottom: "inception_4a/output"
  top: "inception_4b/3x3_reduce"
  convolution_param {
    num_output: 112
    kernel_size: 1
    weight_filler {
      type: "xavier"
      std: 0.09
    }
    bias_filler {
      type: "constant"
      value: 0.2
    }
  }
}
layer {
  name: "inception_4b/relu_3x3_reduce"
  type: "ReLU"
  bottom: "inception_4b/3x3_reduce"
  top: "inception_4b/3x3_reduce"
}
layer {
  name: "inception_4b/3x3"
  type: "Convolution"
  bottom: "inception_4b/3x3_reduce"
  top: "inception_4b/3x3"
  convolution_param {
    num_output: 224
    pad: 1
    kernel_size: 3
    weight_filler {
      type: "xavier"
      std: 0.03
    }
    bias_filler {
      type: "constant"
      value: 0.2
    }
  }
}
layer {
  name: "inception_4b/relu_3x3"
  type: "ReLU"
  bottom: "inception_4b/3x3"
  top: "inception_4b/3x3"
}
layer {
  name: "inception_4b/5x5_reduce"
  type: "Convolution"
  bottom: "inception_4a/output"
  top: "inception_4b/5x5_reduce"
  convolution_param {
    num_output: 24
    kernel_size: 1
    weight_filler {
      type: "xavier"
      std: 0.2
    }
    bias_filler {
      type: "constant"
      value: 0.2
    }
  }
}
layer {
  name: "inception_4b/relu_5x5_reduce"
  type: "ReLU"
  bottom: "inception_4b/5x5_reduce"
  top: "inception_4b/5x5_reduce"
}
layer {
  name: "inception_4b/5x5"
  type: "Convolution"
  bottom: "inception_4b/5x5_reduce"
  top: "inception_4b/5x5"
  convolution_param {
    num_output: 64
    pad: 2
    kernel_size: 5
    weight_filler {
      type: "xavier"
      std: 0.03
    }
    bias_filler {
      type: "constant"
      value: 0.2
    }
  }
}
layer {
  name: "inception_4b/relu_5x5"
  type: "ReLU"
  bottom: "inception_4b/5x5"
  top: "inception_4b/5x5"
}
layer {
  name: "inception_4b/pool"
  type: "Pooling"
  bottom: "inception_4a/output"
  top: "inception_4b/pool"
  pooling_param {
    pool: MAX
    kernel_size: 3
    stride: 1
    pad: 1
  }
}
layer {
  name: "inception_4b/pool_proj"
  type: "Convolution"
  bottom: "inception_4b/pool"
  top: "inception_4b/pool_proj"
  convolution_param {
    num_output: 64
    kernel_size: 1
    weight_filler {
      type: "xavier"
      std: 0.1
    }
    bias_filler {
      type: "constant"
      value: 0.2
    }
  }
}
layer {
  name: "inception_4b/relu_pool_proj"
  type: "ReLU"
  bottom: "inception_4b/pool_proj"
  top: "inception_4b/pool_proj"
}
layer {
  name: "inception_4b/output"
  type: "Concat"
  bottom: "inception_4b/1x1"
  bottom: "inception_4b/3x3"
  bottom: "inception_4b/5x5"
  bottom: "inception_4b/pool_proj"
  top: "inception_4b/output"
}
layer {
  name: "inception_4c/1x1"
  type: "Convolution"
  bottom: "inception_4b/output"
  top: "inception_4c/1x1"
  convolution_param {
    num_output: 128
    kernel_size: 1
    weight_filler {
      type: "xavier"
      std: 0.03
    }
    bias_filler {
      type: "constant"
      value: 0.2
    }
  }
}
layer {
  name: "inception_4c/relu_1x1"
  type: "ReLU"
  bottom: "inception_4c/1x1"
  top: "inception_4c/1x1"
}
layer {
  name: "inception_4c/3x3_reduce"
  type: "Convolution"
  bottom: "inception_4b/output"
  top: "inception_4c/3x3_reduce"
  convolution_param {
    num_output: 128
    kernel_size: 1
    weight_filler {
      type: "xavier"
      std: 0.09
    }
    bias_filler {
      type: "constant"
      value: 0.2
    }
  }
}
layer {
  name: "inception_4c/relu_3x3_reduce"
  type: "ReLU"
  bottom: "inception_4c/3x3_reduce"
  top: "inception_4c/3x3_reduce"
}
layer {
  name: "inception_4c/3x3"
  type: "Convolution"
  bottom: "inception_4c/3x3_reduce"
  top: "inception_4c/3x3"
  convolution_param {
    num_output: 256
    pad: 1
    kernel_size: 3
    weight_filler {
      type: "xavier"
      std: 0.03
    }
    bias_filler {
      type: "constant"
      value: 0.2
    }
  }
}
layer {
  name: "inception_4c/relu_3x3"
  type: "ReLU"
  bottom: "inception_4c/3x3"
  top: "inception_4c/3x3"
}
layer {
  name: "inception_4c/5x5_reduce"
  type: "Convolution"
  bottom: "inception_4b/output"
  top: "inception_4c/5x5_reduce"
  convolution_param {
    num_output: 24
    kernel_size: 1
    weight_filler {
      type: "xavier"
      std: 0.2
    }
    bias_filler {
      type: "constant"
      value: 0.2
    }
  }
}
layer {
  name: "inception_4c/relu_5x5_reduce"
  type: "ReLU"
  bottom: "inception_4c/5x5_reduce"
  top: "inception_4c/5x5_reduce"
}
layer {
  name: "inception_4c/5x5"
  type: "Convolution"
  bottom: "inception_4c/5x5_reduce"
  top: "inception_4c/5x5"
  convolution_param {
    num_output: 64
    pad: 2
    kernel_size: 5
    weight_filler {
      type: "xavier"
      std: 0.03
    }
    bias_filler {
      type: "constant"
      value: 0.2
    }
  }
}
layer {
  name: "inception_4c/relu_5x5"
  type: "ReLU"
  bottom: "inception_4c/5x5"
  top: "inception_4c/5x5"
}
layer {
  name: "inception_4c/pool"
  type: "Pooling"
  bottom: "inception_4b/output"
  top: "inception_4c/pool"
  pooling_param {
    pool: MAX
    kernel_size: 3
    stride: 1
    pad: 1
  }
}
layer {
  name: "inception_4c/pool_proj"
  type: "Convolution"
  bottom: "inception_4c/pool"
  top: "inception_4c/pool_proj"
  convolution_param {
    num_output: 64
    kernel_size: 1
    weight_filler {
      type: "xavier"
      std: 0.1
    }
    bias_filler {
      type: "constant"
      value: 0.2
    }
  }
}
layer {
  name: "inception_4c/relu_pool_proj"
  type: "ReLU"
  bottom: "inception_4c/pool_proj"
  top: "inception_4c/pool_proj"
}
layer {
  name: "inception_4c/output"
  type: "Concat"
  bottom: "inception_4c/1x1"
  bottom: "inception_4c/3x3"
  bottom: "inception_4c/5x5"
  bottom: "inception_4c/pool_proj"
  top: "inception_4c/output"
}
layer {
  name: "inception_4d/1x1"
  type: "Convolution"
  bottom: "inception_4c/output"
  top: "inception_4d/1x1"
  convolution_param {
    num_output: 112
    kernel_size: 1
    weight_filler {
      type: "xavier"
      std: 0.03
    }
    bias_filler {
      type: "constant"
      value: 0.2
    }
  }
}
layer {
  name: "inception_4d/relu_1x1"
  type: "ReLU"
  bottom: "inception_4d/1x1"
  top: "inception_4d/1x1"
}
layer {
  name: "inception_4d/3x3_reduce"
  type: "Convolution"
  bottom: "inception_4c/output"
  top: "inception_4d/3x3_reduce"
  convolution_param {
    num_output: 144
    kernel_size: 1
    weight_filler {
      type: "xavier"
      std: 0.09
    }
    bias_filler {
      type: "constant"
      value: 0.2
    }
  }
}
layer {
  name: "inception_4d/relu_3x3_reduce"
  type: "ReLU"
  bottom: "inception_4d/3x3_reduce"
  top: "inception_4d/3x3_reduce"
}
layer {
  name: "inception_4d/3x3"
  type: "Convolution"
  bottom: "inception_4d/3x3_reduce"
  top: "inception_4d/3x3"
  convolution_param {
    num_output: 288
    pad: 1
    kernel_size: 3
    weight_filler {
      type: "xavier"
      std: 0.03
    }
    bias_filler {
      type: "constant"
      value: 0.2
    }
  }
}
layer {
  name: "inception_4d/relu_3x3"
  type: "ReLU"
  bottom: "inception_4d/3x3"
  top: "inception_4d/3x3"
}
layer {
  name: "inception_4d/5x5_reduce"
  type: "Convolution"
  bottom: "inception_4c/output"
  top: "inception_4d/5x5_reduce"
  convolution_param {
    num_output: 32
    kernel_size: 1
    weight_filler {
      type: "xavier"
      std: 0.2
    }
    bias_filler {
      type: "constant"
      value: 0.2
    }
  }
}
layer {
  name: "inception_4d/relu_5x5_reduce"
  type: "ReLU"
  bottom: "inception_4d/5x5_reduce"
  top: "inception_4d/5x5_reduce"
}
layer {
  name: "inception_4d/5x5"
  type: "Convolution"
  bottom: "inception_4d/5x5_reduce"
  top: "inception_4d/5x5"
  convolution_param {
    num_output: 64
    pad: 2
    kernel_size: 5
    weight_filler {
      type: "xavier"
      std: 0.03
    }
    bias_filler {
      type: "constant"
      value: 0.2
    }
  }
}
layer {
  name: "inception_4d/relu_5x5"
  type: "ReLU"
  bottom: "inception_4d/5x5"
  top: "inception_4d/5x5"
}
layer {
  name: "inception_4d/pool"
  type: "Pooling"
  bottom: "inception_4c/output"
  top: "inception_4d/pool"
  pooling_param {
    pool: MAX
    kernel_size: 3
    stride: 1
    pad: 1
  }
}
layer {
  name: "inception_4d/pool_proj"
  type: "Convolution"
  bottom: "inception_4d/pool"
  top: "inception_4d/pool_proj"
  convolution_param {
    num_output: 64
    kernel_size: 1
    weight_filler {
      type: "xavier"
      std: 0.1
    }
    bias_filler {
      type: "constant"
      value: 0.2
    }
  }
}
layer {
  name: "inception_4d/relu_pool_proj"
  type: "ReLU"
  bottom: "inception_4d/pool_proj"
  top: "inception_4d/pool_proj"
}
layer {
  name: "inception_4d/output"
  type: "Concat"
  bottom: "inception_4d/1x1"
  bottom: "inception_4d/3x3"
  bottom: "inception_4d/5x5"
  bottom: "inception_4d/pool_proj"
  top: "inception_4d/output"
}
layer {
  name: "loss2/ave_pool"
  type: "Pooling"
  bottom: "inception_4d/output"
  top: "loss2/ave_pool"
  pooling_param {
    pool: AVE
    kernel_size: 5
    stride: 3
  }
}
layer {
  name: "loss2/conv"
  type: "Convolution"
  bottom: "loss2/ave_pool"
  top: "loss2/conv"
  convolution_param {
    num_output: 128
    kernel_size: 1
    weight_filler {
      type: "xavier"
      std: 0.08
    }
    bias_filler {
      type: "constant"
      value: 0.2
    }
  }
}
layer {
  name: "loss2/relu_conv"
  type: "ReLU"
  bottom: "loss2/conv"
  top: "loss2/conv"
}
layer {
  name: "loss2/fc"
  type: "InnerProduct"
  bottom: "loss2/conv"
  top: "loss2/fc"
  inner_product_param {
    num_output: 1024
    weight_filler {
      type: "xavier"
      std: 0.02
    }
    bias_filler {
      type: "constant"
      value: 0.2
    }
  }
}
layer {
  name: "loss2/relu_fc"
  type: "ReLU"
  bottom: "loss2/fc"
  top: "loss2/fc"
}
layer {
  name: "loss2/drop_fc"
  type: "Dropout"
  bottom: "loss2/fc"
  top: "loss2/fc"
  dropout_param {
    dropout_ratio: 0.7
  }
}
layer {
  name: "loss2/classifier"
  type: "InnerProduct"
  bottom: "loss2/fc"
  top: "loss2/classifier"
  inner_product_param {
    num_output: 1901
    weight_filler {
      type: "xavier"
    }
    bias_filler {
      type: "constant"
      value: 0
    }
  }
}
layer {
  name: "loss"
  type: "SoftmaxWithLoss"
  bottom: "loss2/classifier"
  bottom: "label"
  top: "loss"
}
I0223 11:38:56.551491  6396 layer_factory.hpp:77] Creating layer data
I0223 11:38:56.566434  6396 net.cpp:100] Creating Layer data
I0223 11:38:56.566452  6396 net.cpp:408] data -> data
I0223 11:38:56.566931  6396 net.cpp:408] data -> label
I0223 11:38:56.567036  6412 db_lmdb.cpp:35] Opened lmdb img_train_lmdb
I0223 11:38:56.567256  6396 data_transformer.cpp:27] Loading mean file from: mean.binaryproto
I0223 11:38:57.448087  6396 data_layer.cpp:41] output data size: 64,3,227,227
I0223 11:38:57.514202  6396 net.cpp:150] Setting up data
I0223 11:38:57.514225  6396 net.cpp:157] Top shape: 64 3 227 227 (9893568)
I0223 11:38:57.514230  6396 net.cpp:157] Top shape: 64 (64)
I0223 11:38:57.514233  6396 net.cpp:165] Memory required for data: 39574528
I0223 11:38:57.514242  6396 layer_factory.hpp:77] Creating layer conv1/7x7_s2
I0223 11:38:57.514264  6396 net.cpp:100] Creating Layer conv1/7x7_s2
I0223 11:38:57.514271  6396 net.cpp:434] conv1/7x7_s2 <- data
I0223 11:38:57.514298  6396 net.cpp:408] conv1/7x7_s2 -> conv1/7x7_s2
I0223 11:38:57.738032  6413 blocking_queue.cpp:50] Waiting for data
I0223 11:39:06.063855  6396 net.cpp:150] Setting up conv1/7x7_s2
I0223 11:39:06.063875  6396 net.cpp:157] Top shape: 64 64 114 114 (53231616)
I0223 11:39:06.063879  6396 net.cpp:165] Memory required for data: 252500992
I0223 11:39:06.063899  6396 layer_factory.hpp:77] Creating layer conv1/relu_7x7
I0223 11:39:06.063907  6396 net.cpp:100] Creating Layer conv1/relu_7x7
I0223 11:39:06.063911  6396 net.cpp:434] conv1/relu_7x7 <- conv1/7x7_s2
I0223 11:39:06.063915  6396 net.cpp:395] conv1/relu_7x7 -> conv1/7x7_s2 (in-place)
I0223 11:39:06.064335  6396 net.cpp:150] Setting up conv1/relu_7x7
I0223 11:39:06.064355  6396 net.cpp:157] Top shape: 64 64 114 114 (53231616)
I0223 11:39:06.064358  6396 net.cpp:165] Memory required for data: 465427456
I0223 11:39:06.064362  6396 layer_factory.hpp:77] Creating layer pool1/3x3_s2
I0223 11:39:06.064368  6396 net.cpp:100] Creating Layer pool1/3x3_s2
I0223 11:39:06.064369  6396 net.cpp:434] pool1/3x3_s2 <- conv1/7x7_s2
I0223 11:39:06.064374  6396 net.cpp:408] pool1/3x3_s2 -> pool1/3x3_s2
I0223 11:39:06.064447  6396 net.cpp:150] Setting up pool1/3x3_s2
I0223 11:39:06.064452  6396 net.cpp:157] Top shape: 64 64 57 57 (13307904)
I0223 11:39:06.064469  6396 net.cpp:165] Memory required for data: 518659072
I0223 11:39:06.064472  6396 layer_factory.hpp:77] Creating layer pool1/norm1
I0223 11:39:06.064479  6396 net.cpp:100] Creating Layer pool1/norm1
I0223 11:39:06.064482  6396 net.cpp:434] pool1/norm1 <- pool1/3x3_s2
I0223 11:39:06.064487  6396 net.cpp:408] pool1/norm1 -> pool1/norm1
I0223 11:39:06.064635  6396 net.cpp:150] Setting up pool1/norm1
I0223 11:39:06.064642  6396 net.cpp:157] Top shape: 64 64 57 57 (13307904)
I0223 11:39:06.064644  6396 net.cpp:165] Memory required for data: 571890688
I0223 11:39:06.064647  6396 layer_factory.hpp:77] Creating layer conv2/3x3_reduce
I0223 11:39:06.064654  6396 net.cpp:100] Creating Layer conv2/3x3_reduce
I0223 11:39:06.064656  6396 net.cpp:434] conv2/3x3_reduce <- pool1/norm1
I0223 11:39:06.064659  6396 net.cpp:408] conv2/3x3_reduce -> conv2/3x3_reduce
I0223 11:39:06.065954  6396 net.cpp:150] Setting up conv2/3x3_reduce
I0223 11:39:06.065965  6396 net.cpp:157] Top shape: 64 64 57 57 (13307904)
I0223 11:39:06.065968  6396 net.cpp:165] Memory required for data: 625122304
I0223 11:39:06.065974  6396 layer_factory.hpp:77] Creating layer conv2/relu_3x3_reduce
I0223 11:39:06.065979  6396 net.cpp:100] Creating Layer conv2/relu_3x3_reduce
I0223 11:39:06.065981  6396 net.cpp:434] conv2/relu_3x3_reduce <- conv2/3x3_reduce
I0223 11:39:06.065984  6396 net.cpp:395] conv2/relu_3x3_reduce -> conv2/3x3_reduce (in-place)
I0223 11:39:06.066138  6396 net.cpp:150] Setting up conv2/relu_3x3_reduce
I0223 11:39:06.066144  6396 net.cpp:157] Top shape: 64 64 57 57 (13307904)
I0223 11:39:06.066146  6396 net.cpp:165] Memory required for data: 678353920
I0223 11:39:06.066148  6396 layer_factory.hpp:77] Creating layer conv2/3x3
I0223 11:39:06.066154  6396 net.cpp:100] Creating Layer conv2/3x3
I0223 11:39:06.066157  6396 net.cpp:434] conv2/3x3 <- conv2/3x3_reduce
I0223 11:39:06.066161  6396 net.cpp:408] conv2/3x3 -> conv2/3x3
I0223 11:39:06.076968  6396 net.cpp:150] Setting up conv2/3x3
I0223 11:39:06.076987  6396 net.cpp:157] Top shape: 64 192 57 57 (39923712)
I0223 11:39:06.076990  6396 net.cpp:165] Memory required for data: 838048768
I0223 11:39:06.077000  6396 layer_factory.hpp:77] Creating layer conv2/relu_3x3
I0223 11:39:06.077010  6396 net.cpp:100] Creating Layer conv2/relu_3x3
I0223 11:39:06.077014  6396 net.cpp:434] conv2/relu_3x3 <- conv2/3x3
I0223 11:39:06.077018  6396 net.cpp:395] conv2/relu_3x3 -> conv2/3x3 (in-place)
I0223 11:39:06.077458  6396 net.cpp:150] Setting up conv2/relu_3x3
I0223 11:39:06.077468  6396 net.cpp:157] Top shape: 64 192 57 57 (39923712)
I0223 11:39:06.077472  6396 net.cpp:165] Memory required for data: 997743616
I0223 11:39:06.077474  6396 layer_factory.hpp:77] Creating layer conv2/norm2
I0223 11:39:06.077481  6396 net.cpp:100] Creating Layer conv2/norm2
I0223 11:39:06.077484  6396 net.cpp:434] conv2/norm2 <- conv2/3x3
I0223 11:39:06.077489  6396 net.cpp:408] conv2/norm2 -> conv2/norm2
I0223 11:39:06.077656  6396 net.cpp:150] Setting up conv2/norm2
I0223 11:39:06.077663  6396 net.cpp:157] Top shape: 64 192 57 57 (39923712)
I0223 11:39:06.077666  6396 net.cpp:165] Memory required for data: 1157438464
I0223 11:39:06.077669  6396 layer_factory.hpp:77] Creating layer pool2/3x3_s2
I0223 11:39:06.077677  6396 net.cpp:100] Creating Layer pool2/3x3_s2
I0223 11:39:06.077679  6396 net.cpp:434] pool2/3x3_s2 <- conv2/norm2
I0223 11:39:06.077683  6396 net.cpp:408] pool2/3x3_s2 -> pool2/3x3_s2
I0223 11:39:06.077725  6396 net.cpp:150] Setting up pool2/3x3_s2
I0223 11:39:06.077733  6396 net.cpp:157] Top shape: 64 192 28 28 (9633792)
I0223 11:39:06.077734  6396 net.cpp:165] Memory required for data: 1195973632
I0223 11:39:06.077738  6396 layer_factory.hpp:77] Creating layer pool2/3x3_s2_pool2/3x3_s2_0_split
I0223 11:39:06.077746  6396 net.cpp:100] Creating Layer pool2/3x3_s2_pool2/3x3_s2_0_split
I0223 11:39:06.077749  6396 net.cpp:434] pool2/3x3_s2_pool2/3x3_s2_0_split <- pool2/3x3_s2
I0223 11:39:06.077752  6396 net.cpp:408] pool2/3x3_s2_pool2/3x3_s2_0_split -> pool2/3x3_s2_pool2/3x3_s2_0_split_0
I0223 11:39:06.077756  6396 net.cpp:408] pool2/3x3_s2_pool2/3x3_s2_0_split -> pool2/3x3_s2_pool2/3x3_s2_0_split_1
I0223 11:39:06.077760  6396 net.cpp:408] pool2/3x3_s2_pool2/3x3_s2_0_split -> pool2/3x3_s2_pool2/3x3_s2_0_split_2
I0223 11:39:06.077764  6396 net.cpp:408] pool2/3x3_s2_pool2/3x3_s2_0_split -> pool2/3x3_s2_pool2/3x3_s2_0_split_3
I0223 11:39:06.077810  6396 net.cpp:150] Setting up pool2/3x3_s2_pool2/3x3_s2_0_split
I0223 11:39:06.077814  6396 net.cpp:157] Top shape: 64 192 28 28 (9633792)
I0223 11:39:06.077818  6396 net.cpp:157] Top shape: 64 192 28 28 (9633792)
I0223 11:39:06.077821  6396 net.cpp:157] Top shape: 64 192 28 28 (9633792)
I0223 11:39:06.077823  6396 net.cpp:157] Top shape: 64 192 28 28 (9633792)
I0223 11:39:06.077826  6396 net.cpp:165] Memory required for data: 1350114304
I0223 11:39:06.077828  6396 layer_factory.hpp:77] Creating layer inception_3a/1x1
I0223 11:39:06.077836  6396 net.cpp:100] Creating Layer inception_3a/1x1
I0223 11:39:06.077838  6396 net.cpp:434] inception_3a/1x1 <- pool2/3x3_s2_pool2/3x3_s2_0_split_0
I0223 11:39:06.077843  6396 net.cpp:408] inception_3a/1x1 -> inception_3a/1x1
I0223 11:39:06.079346  6396 net.cpp:150] Setting up inception_3a/1x1
I0223 11:39:06.079357  6396 net.cpp:157] Top shape: 64 64 28 28 (3211264)
I0223 11:39:06.079360  6396 net.cpp:165] Memory required for data: 1362959360
I0223 11:39:06.079365  6396 layer_factory.hpp:77] Creating layer inception_3a/relu_1x1
I0223 11:39:06.079370  6396 net.cpp:100] Creating Layer inception_3a/relu_1x1
I0223 11:39:06.079375  6396 net.cpp:434] inception_3a/relu_1x1 <- inception_3a/1x1
I0223 11:39:06.079380  6396 net.cpp:395] inception_3a/relu_1x1 -> inception_3a/1x1 (in-place)
I0223 11:39:06.079530  6396 net.cpp:150] Setting up inception_3a/relu_1x1
I0223 11:39:06.079537  6396 net.cpp:157] Top shape: 64 64 28 28 (3211264)
I0223 11:39:06.079540  6396 net.cpp:165] Memory required for data: 1375804416
I0223 11:39:06.079542  6396 layer_factory.hpp:77] Creating layer inception_3a/3x3_reduce
I0223 11:39:06.079550  6396 net.cpp:100] Creating Layer inception_3a/3x3_reduce
I0223 11:39:06.079552  6396 net.cpp:434] inception_3a/3x3_reduce <- pool2/3x3_s2_pool2/3x3_s2_0_split_1
I0223 11:39:06.079556  6396 net.cpp:408] inception_3a/3x3_reduce -> inception_3a/3x3_reduce
I0223 11:39:06.094708  6396 net.cpp:150] Setting up inception_3a/3x3_reduce
I0223 11:39:06.094729  6396 net.cpp:157] Top shape: 64 96 28 28 (4816896)
I0223 11:39:06.094732  6396 net.cpp:165] Memory required for data: 1395072000
I0223 11:39:06.094744  6396 layer_factory.hpp:77] Creating layer inception_3a/relu_3x3_reduce
I0223 11:39:06.094753  6396 net.cpp:100] Creating Layer inception_3a/relu_3x3_reduce
I0223 11:39:06.094756  6396 net.cpp:434] inception_3a/relu_3x3_reduce <- inception_3a/3x3_reduce
I0223 11:39:06.094761  6396 net.cpp:395] inception_3a/relu_3x3_reduce -> inception_3a/3x3_reduce (in-place)
I0223 11:39:06.094911  6396 net.cpp:150] Setting up inception_3a/relu_3x3_reduce
I0223 11:39:06.094918  6396 net.cpp:157] Top shape: 64 96 28 28 (4816896)
I0223 11:39:06.094921  6396 net.cpp:165] Memory required for data: 1414339584
I0223 11:39:06.094924  6396 layer_factory.hpp:77] Creating layer inception_3a/3x3
I0223 11:39:06.094931  6396 net.cpp:100] Creating Layer inception_3a/3x3
I0223 11:39:06.094934  6396 net.cpp:434] inception_3a/3x3 <- inception_3a/3x3_reduce
I0223 11:39:06.094939  6396 net.cpp:408] inception_3a/3x3 -> inception_3a/3x3
I0223 11:39:06.096603  6396 net.cpp:150] Setting up inception_3a/3x3
I0223 11:39:06.096623  6396 net.cpp:157] Top shape: 64 128 28 28 (6422528)
I0223 11:39:06.096627  6396 net.cpp:165] Memory required for data: 1440029696
I0223 11:39:06.096632  6396 layer_factory.hpp:77] Creating layer inception_3a/relu_3x3
I0223 11:39:06.096637  6396 net.cpp:100] Creating Layer inception_3a/relu_3x3
I0223 11:39:06.096639  6396 net.cpp:434] inception_3a/relu_3x3 <- inception_3a/3x3
I0223 11:39:06.096643  6396 net.cpp:395] inception_3a/relu_3x3 -> inception_3a/3x3 (in-place)
I0223 11:39:06.097035  6396 net.cpp:150] Setting up inception_3a/relu_3x3
I0223 11:39:06.097044  6396 net.cpp:157] Top shape: 64 128 28 28 (6422528)
I0223 11:39:06.097048  6396 net.cpp:165] Memory required for data: 1465719808
I0223 11:39:06.097049  6396 layer_factory.hpp:77] Creating layer inception_3a/5x5_reduce
I0223 11:39:06.097057  6396 net.cpp:100] Creating Layer inception_3a/5x5_reduce
I0223 11:39:06.097060  6396 net.cpp:434] inception_3a/5x5_reduce <- pool2/3x3_s2_pool2/3x3_s2_0_split_2
I0223 11:39:06.097065  6396 net.cpp:408] inception_3a/5x5_reduce -> inception_3a/5x5_reduce
I0223 11:39:06.097995  6396 net.cpp:150] Setting up inception_3a/5x5_reduce
I0223 11:39:06.098004  6396 net.cpp:157] Top shape: 64 16 28 28 (802816)
I0223 11:39:06.098007  6396 net.cpp:165] Memory required for data: 1468931072
I0223 11:39:06.098012  6396 layer_factory.hpp:77] Creating layer inception_3a/relu_5x5_reduce
I0223 11:39:06.098016  6396 net.cpp:100] Creating Layer inception_3a/relu_5x5_reduce
I0223 11:39:06.098019  6396 net.cpp:434] inception_3a/relu_5x5_reduce <- inception_3a/5x5_reduce
I0223 11:39:06.098023  6396 net.cpp:395] inception_3a/relu_5x5_reduce -> inception_3a/5x5_reduce (in-place)
I0223 11:39:06.098160  6396 net.cpp:150] Setting up inception_3a/relu_5x5_reduce
I0223 11:39:06.098165  6396 net.cpp:157] Top shape: 64 16 28 28 (802816)
I0223 11:39:06.098168  6396 net.cpp:165] Memory required for data: 1472142336
I0223 11:39:06.098170  6396 layer_factory.hpp:77] Creating layer inception_3a/5x5
I0223 11:39:06.098176  6396 net.cpp:100] Creating Layer inception_3a/5x5
I0223 11:39:06.098179  6396 net.cpp:434] inception_3a/5x5 <- inception_3a/5x5_reduce
I0223 11:39:06.098184  6396 net.cpp:408] inception_3a/5x5 -> inception_3a/5x5
I0223 11:39:06.099103  6396 net.cpp:150] Setting up inception_3a/5x5
I0223 11:39:06.099114  6396 net.cpp:157] Top shape: 64 32 28 28 (1605632)
I0223 11:39:06.099118  6396 net.cpp:165] Memory required for data: 1478564864
I0223 11:39:06.099123  6396 layer_factory.hpp:77] Creating layer inception_3a/relu_5x5
I0223 11:39:06.099126  6396 net.cpp:100] Creating Layer inception_3a/relu_5x5
I0223 11:39:06.099129  6396 net.cpp:434] inception_3a/relu_5x5 <- inception_3a/5x5
I0223 11:39:06.099133  6396 net.cpp:395] inception_3a/relu_5x5 -> inception_3a/5x5 (in-place)
I0223 11:39:06.099270  6396 net.cpp:150] Setting up inception_3a/relu_5x5
I0223 11:39:06.099277  6396 net.cpp:157] Top shape: 64 32 28 28 (1605632)
I0223 11:39:06.099280  6396 net.cpp:165] Memory required for data: 1484987392
I0223 11:39:06.099282  6396 layer_factory.hpp:77] Creating layer inception_3a/pool
I0223 11:39:06.099287  6396 net.cpp:100] Creating Layer inception_3a/pool
I0223 11:39:06.099289  6396 net.cpp:434] inception_3a/pool <- pool2/3x3_s2_pool2/3x3_s2_0_split_3
I0223 11:39:06.099293  6396 net.cpp:408] inception_3a/pool -> inception_3a/pool
I0223 11:39:06.099325  6396 net.cpp:150] Setting up inception_3a/pool
I0223 11:39:06.099329  6396 net.cpp:157] Top shape: 64 192 28 28 (9633792)
I0223 11:39:06.099333  6396 net.cpp:165] Memory required for data: 1523522560
I0223 11:39:06.099334  6396 layer_factory.hpp:77] Creating layer inception_3a/pool_proj
I0223 11:39:06.099339  6396 net.cpp:100] Creating Layer inception_3a/pool_proj
I0223 11:39:06.099342  6396 net.cpp:434] inception_3a/pool_proj <- inception_3a/pool
I0223 11:39:06.099346  6396 net.cpp:408] inception_3a/pool_proj -> inception_3a/pool_proj
I0223 11:39:06.100222  6396 net.cpp:150] Setting up inception_3a/pool_proj
I0223 11:39:06.100234  6396 net.cpp:157] Top shape: 64 32 28 28 (1605632)
I0223 11:39:06.100244  6396 net.cpp:165] Memory required for data: 1529945088
I0223 11:39:06.100250  6396 layer_factory.hpp:77] Creating layer inception_3a/relu_pool_proj
I0223 11:39:06.100255  6396 net.cpp:100] Creating Layer inception_3a/relu_pool_proj
I0223 11:39:06.100257  6396 net.cpp:434] inception_3a/relu_pool_proj <- inception_3a/pool_proj
I0223 11:39:06.100262  6396 net.cpp:395] inception_3a/relu_pool_proj -> inception_3a/pool_proj (in-place)
I0223 11:39:06.100654  6396 net.cpp:150] Setting up inception_3a/relu_pool_proj
I0223 11:39:06.100663  6396 net.cpp:157] Top shape: 64 32 28 28 (1605632)
I0223 11:39:06.100666  6396 net.cpp:165] Memory required for data: 1536367616
I0223 11:39:06.100668  6396 layer_factory.hpp:77] Creating layer inception_3a/output
I0223 11:39:06.100674  6396 net.cpp:100] Creating Layer inception_3a/output
I0223 11:39:06.100677  6396 net.cpp:434] inception_3a/output <- inception_3a/1x1
I0223 11:39:06.100680  6396 net.cpp:434] inception_3a/output <- inception_3a/3x3
I0223 11:39:06.100683  6396 net.cpp:434] inception_3a/output <- inception_3a/5x5
I0223 11:39:06.100687  6396 net.cpp:434] inception_3a/output <- inception_3a/pool_proj
I0223 11:39:06.100690  6396 net.cpp:408] inception_3a/output -> inception_3a/output
I0223 11:39:06.113956  6396 net.cpp:150] Setting up inception_3a/output
I0223 11:39:06.113978  6396 net.cpp:157] Top shape: 64 256 28 28 (12845056)
I0223 11:39:06.113981  6396 net.cpp:165] Memory required for data: 1587747840
I0223 11:39:06.113986  6396 layer_factory.hpp:77] Creating layer inception_3a/output_inception_3a/output_0_split
I0223 11:39:06.113992  6396 net.cpp:100] Creating Layer inception_3a/output_inception_3a/output_0_split
I0223 11:39:06.113996  6396 net.cpp:434] inception_3a/output_inception_3a/output_0_split <- inception_3a/output
I0223 11:39:06.114004  6396 net.cpp:408] inception_3a/output_inception_3a/output_0_split -> inception_3a/output_inception_3a/output_0_split_0
I0223 11:39:06.114012  6396 net.cpp:408] inception_3a/output_inception_3a/output_0_split -> inception_3a/output_inception_3a/output_0_split_1
I0223 11:39:06.114017  6396 net.cpp:408] inception_3a/output_inception_3a/output_0_split -> inception_3a/output_inception_3a/output_0_split_2
I0223 11:39:06.114022  6396 net.cpp:408] inception_3a/output_inception_3a/output_0_split -> inception_3a/output_inception_3a/output_0_split_3
I0223 11:39:06.114078  6396 net.cpp:150] Setting up inception_3a/output_inception_3a/output_0_split
I0223 11:39:06.114084  6396 net.cpp:157] Top shape: 64 256 28 28 (12845056)
I0223 11:39:06.114086  6396 net.cpp:157] Top shape: 64 256 28 28 (12845056)
I0223 11:39:06.114089  6396 net.cpp:157] Top shape: 64 256 28 28 (12845056)
I0223 11:39:06.114092  6396 net.cpp:157] Top shape: 64 256 28 28 (12845056)
I0223 11:39:06.114094  6396 net.cpp:165] Memory required for data: 1793268736
I0223 11:39:06.114097  6396 layer_factory.hpp:77] Creating layer inception_3b/1x1
I0223 11:39:06.114104  6396 net.cpp:100] Creating Layer inception_3b/1x1
I0223 11:39:06.114107  6396 net.cpp:434] inception_3b/1x1 <- inception_3a/output_inception_3a/output_0_split_0
I0223 11:39:06.114116  6396 net.cpp:408] inception_3b/1x1 -> inception_3b/1x1
I0223 11:39:06.115329  6396 net.cpp:150] Setting up inception_3b/1x1
I0223 11:39:06.115339  6396 net.cpp:157] Top shape: 64 128 28 28 (6422528)
I0223 11:39:06.115342  6396 net.cpp:165] Memory required for data: 1818958848
I0223 11:39:06.115347  6396 layer_factory.hpp:77] Creating layer inception_3b/relu_1x1
I0223 11:39:06.115353  6396 net.cpp:100] Creating Layer inception_3b/relu_1x1
I0223 11:39:06.115356  6396 net.cpp:434] inception_3b/relu_1x1 <- inception_3b/1x1
I0223 11:39:06.115360  6396 net.cpp:395] inception_3b/relu_1x1 -> inception_3b/1x1 (in-place)
I0223 11:39:06.115500  6396 net.cpp:150] Setting up inception_3b/relu_1x1
I0223 11:39:06.115507  6396 net.cpp:157] Top shape: 64 128 28 28 (6422528)
I0223 11:39:06.115509  6396 net.cpp:165] Memory required for data: 1844648960
I0223 11:39:06.115512  6396 layer_factory.hpp:77] Creating layer inception_3b/3x3_reduce
I0223 11:39:06.115530  6396 net.cpp:100] Creating Layer inception_3b/3x3_reduce
I0223 11:39:06.115532  6396 net.cpp:434] inception_3b/3x3_reduce <- inception_3a/output_inception_3a/output_0_split_1
I0223 11:39:06.115537  6396 net.cpp:408] inception_3b/3x3_reduce -> inception_3b/3x3_reduce
I0223 11:39:06.116575  6396 net.cpp:150] Setting up inception_3b/3x3_reduce
I0223 11:39:06.116585  6396 net.cpp:157] Top shape: 64 128 28 28 (6422528)
I0223 11:39:06.116587  6396 net.cpp:165] Memory required for data: 1870339072
I0223 11:39:06.116592  6396 layer_factory.hpp:77] Creating layer inception_3b/relu_3x3_reduce
I0223 11:39:06.116597  6396 net.cpp:100] Creating Layer inception_3b/relu_3x3_reduce
I0223 11:39:06.116600  6396 net.cpp:434] inception_3b/relu_3x3_reduce <- inception_3b/3x3_reduce
I0223 11:39:06.116605  6396 net.cpp:395] inception_3b/relu_3x3_reduce -> inception_3b/3x3_reduce (in-place)
I0223 11:39:06.116742  6396 net.cpp:150] Setting up inception_3b/relu_3x3_reduce
I0223 11:39:06.116750  6396 net.cpp:157] Top shape: 64 128 28 28 (6422528)
I0223 11:39:06.116752  6396 net.cpp:165] Memory required for data: 1896029184
I0223 11:39:06.116755  6396 layer_factory.hpp:77] Creating layer inception_3b/3x3
I0223 11:39:06.116761  6396 net.cpp:100] Creating Layer inception_3b/3x3
I0223 11:39:06.116765  6396 net.cpp:434] inception_3b/3x3 <- inception_3b/3x3_reduce
I0223 11:39:06.116767  6396 net.cpp:408] inception_3b/3x3 -> inception_3b/3x3
I0223 11:39:06.119514  6396 net.cpp:150] Setting up inception_3b/3x3
I0223 11:39:06.119525  6396 net.cpp:157] Top shape: 64 192 28 28 (9633792)
I0223 11:39:06.119529  6396 net.cpp:165] Memory required for data: 1934564352
I0223 11:39:06.119535  6396 layer_factory.hpp:77] Creating layer inception_3b/relu_3x3
I0223 11:39:06.119542  6396 net.cpp:100] Creating Layer inception_3b/relu_3x3
I0223 11:39:06.119545  6396 net.cpp:434] inception_3b/relu_3x3 <- inception_3b/3x3
I0223 11:39:06.119549  6396 net.cpp:395] inception_3b/relu_3x3 -> inception_3b/3x3 (in-place)
I0223 11:39:06.119941  6396 net.cpp:150] Setting up inception_3b/relu_3x3
I0223 11:39:06.119951  6396 net.cpp:157] Top shape: 64 192 28 28 (9633792)
I0223 11:39:06.119954  6396 net.cpp:165] Memory required for data: 1973099520
I0223 11:39:06.119957  6396 layer_factory.hpp:77] Creating layer inception_3b/5x5_reduce
I0223 11:39:06.119963  6396 net.cpp:100] Creating Layer inception_3b/5x5_reduce
I0223 11:39:06.119966  6396 net.cpp:434] inception_3b/5x5_reduce <- inception_3a/output_inception_3a/output_0_split_2
I0223 11:39:06.119971  6396 net.cpp:408] inception_3b/5x5_reduce -> inception_3b/5x5_reduce
I0223 11:39:06.120895  6396 net.cpp:150] Setting up inception_3b/5x5_reduce
I0223 11:39:06.120905  6396 net.cpp:157] Top shape: 64 32 28 28 (1605632)
I0223 11:39:06.120908  6396 net.cpp:165] Memory required for data: 1979522048
I0223 11:39:06.120913  6396 layer_factory.hpp:77] Creating layer inception_3b/relu_5x5_reduce
I0223 11:39:06.120918  6396 net.cpp:100] Creating Layer inception_3b/relu_5x5_reduce
I0223 11:39:06.120921  6396 net.cpp:434] inception_3b/relu_5x5_reduce <- inception_3b/5x5_reduce
I0223 11:39:06.120924  6396 net.cpp:395] inception_3b/relu_5x5_reduce -> inception_3b/5x5_reduce (in-place)
I0223 11:39:06.121901  6396 net.cpp:150] Setting up inception_3b/relu_5x5_reduce
I0223 11:39:06.121912  6396 net.cpp:157] Top shape: 64 32 28 28 (1605632)
I0223 11:39:06.121914  6396 net.cpp:165] Memory required for data: 1985944576
I0223 11:39:06.121917  6396 layer_factory.hpp:77] Creating layer inception_3b/5x5
I0223 11:39:06.121923  6396 net.cpp:100] Creating Layer inception_3b/5x5
I0223 11:39:06.121927  6396 net.cpp:434] inception_3b/5x5 <- inception_3b/5x5_reduce
I0223 11:39:06.121932  6396 net.cpp:408] inception_3b/5x5 -> inception_3b/5x5
I0223 11:39:06.123800  6396 net.cpp:150] Setting up inception_3b/5x5
I0223 11:39:06.123819  6396 net.cpp:157] Top shape: 64 96 28 28 (4816896)
I0223 11:39:06.123823  6396 net.cpp:165] Memory required for data: 2005212160
I0223 11:39:06.123831  6396 layer_factory.hpp:77] Creating layer inception_3b/relu_5x5
I0223 11:39:06.123852  6396 net.cpp:100] Creating Layer inception_3b/relu_5x5
I0223 11:39:06.123858  6396 net.cpp:434] inception_3b/relu_5x5 <- inception_3b/5x5
I0223 11:39:06.123863  6396 net.cpp:395] inception_3b/relu_5x5 -> inception_3b/5x5 (in-place)
I0223 11:39:06.124011  6396 net.cpp:150] Setting up inception_3b/relu_5x5
I0223 11:39:06.124019  6396 net.cpp:157] Top shape: 64 96 28 28 (4816896)
I0223 11:39:06.124023  6396 net.cpp:165] Memory required for data: 2024479744
I0223 11:39:06.124027  6396 layer_factory.hpp:77] Creating layer inception_3b/pool
I0223 11:39:06.124033  6396 net.cpp:100] Creating Layer inception_3b/pool
I0223 11:39:06.124040  6396 net.cpp:434] inception_3b/pool <- inception_3a/output_inception_3a/output_0_split_3
I0223 11:39:06.124047  6396 net.cpp:408] inception_3b/pool -> inception_3b/pool
I0223 11:39:06.124083  6396 net.cpp:150] Setting up inception_3b/pool
I0223 11:39:06.124089  6396 net.cpp:157] Top shape: 64 256 28 28 (12845056)
I0223 11:39:06.124090  6396 net.cpp:165] Memory required for data: 2075859968
I0223 11:39:06.124094  6396 layer_factory.hpp:77] Creating layer inception_3b/pool_proj
I0223 11:39:06.124100  6396 net.cpp:100] Creating Layer inception_3b/pool_proj
I0223 11:39:06.124104  6396 net.cpp:434] inception_3b/pool_proj <- inception_3b/pool
I0223 11:39:06.124107  6396 net.cpp:408] inception_3b/pool_proj -> inception_3b/pool_proj
I0223 11:39:06.125105  6396 net.cpp:150] Setting up inception_3b/pool_proj
I0223 11:39:06.125116  6396 net.cpp:157] Top shape: 64 64 28 28 (3211264)
I0223 11:39:06.125119  6396 net.cpp:165] Memory required for data: 2088705024
I0223 11:39:06.125123  6396 layer_factory.hpp:77] Creating layer inception_3b/relu_pool_proj
I0223 11:39:06.125129  6396 net.cpp:100] Creating Layer inception_3b/relu_pool_proj
I0223 11:39:06.125133  6396 net.cpp:434] inception_3b/relu_pool_proj <- inception_3b/pool_proj
I0223 11:39:06.125135  6396 net.cpp:395] inception_3b/relu_pool_proj -> inception_3b/pool_proj (in-place)
I0223 11:39:06.125270  6396 net.cpp:150] Setting up inception_3b/relu_pool_proj
I0223 11:39:06.125277  6396 net.cpp:157] Top shape: 64 64 28 28 (3211264)
I0223 11:39:06.125279  6396 net.cpp:165] Memory required for data: 2101550080
I0223 11:39:06.125282  6396 layer_factory.hpp:77] Creating layer inception_3b/output
I0223 11:39:06.125286  6396 net.cpp:100] Creating Layer inception_3b/output
I0223 11:39:06.125289  6396 net.cpp:434] inception_3b/output <- inception_3b/1x1
I0223 11:39:06.125293  6396 net.cpp:434] inception_3b/output <- inception_3b/3x3
I0223 11:39:06.125295  6396 net.cpp:434] inception_3b/output <- inception_3b/5x5
I0223 11:39:06.125298  6396 net.cpp:434] inception_3b/output <- inception_3b/pool_proj
I0223 11:39:06.125303  6396 net.cpp:408] inception_3b/output -> inception_3b/output
I0223 11:39:06.125324  6396 net.cpp:150] Setting up inception_3b/output
I0223 11:39:06.125329  6396 net.cpp:157] Top shape: 64 480 28 28 (24084480)
I0223 11:39:06.125330  6396 net.cpp:165] Memory required for data: 2197888000
I0223 11:39:06.125332  6396 layer_factory.hpp:77] Creating layer pool3/3x3_s2
I0223 11:39:06.125336  6396 net.cpp:100] Creating Layer pool3/3x3_s2
I0223 11:39:06.125339  6396 net.cpp:434] pool3/3x3_s2 <- inception_3b/output
I0223 11:39:06.125344  6396 net.cpp:408] pool3/3x3_s2 -> pool3/3x3_s2
I0223 11:39:06.125370  6396 net.cpp:150] Setting up pool3/3x3_s2
I0223 11:39:06.125376  6396 net.cpp:157] Top shape: 64 480 14 14 (6021120)
I0223 11:39:06.125380  6396 net.cpp:165] Memory required for data: 2221972480
I0223 11:39:06.125381  6396 layer_factory.hpp:77] Creating layer pool3/3x3_s2_pool3/3x3_s2_0_split
I0223 11:39:06.125385  6396 net.cpp:100] Creating Layer pool3/3x3_s2_pool3/3x3_s2_0_split
I0223 11:39:06.125388  6396 net.cpp:434] pool3/3x3_s2_pool3/3x3_s2_0_split <- pool3/3x3_s2
I0223 11:39:06.125391  6396 net.cpp:408] pool3/3x3_s2_pool3/3x3_s2_0_split -> pool3/3x3_s2_pool3/3x3_s2_0_split_0
I0223 11:39:06.125396  6396 net.cpp:408] pool3/3x3_s2_pool3/3x3_s2_0_split -> pool3/3x3_s2_pool3/3x3_s2_0_split_1
I0223 11:39:06.125401  6396 net.cpp:408] pool3/3x3_s2_pool3/3x3_s2_0_split -> pool3/3x3_s2_pool3/3x3_s2_0_split_2
I0223 11:39:06.125413  6396 net.cpp:408] pool3/3x3_s2_pool3/3x3_s2_0_split -> pool3/3x3_s2_pool3/3x3_s2_0_split_3
I0223 11:39:06.125468  6396 net.cpp:150] Setting up pool3/3x3_s2_pool3/3x3_s2_0_split
I0223 11:39:06.125475  6396 net.cpp:157] Top shape: 64 480 14 14 (6021120)
I0223 11:39:06.125481  6396 net.cpp:157] Top shape: 64 480 14 14 (6021120)
I0223 11:39:06.125488  6396 net.cpp:157] Top shape: 64 480 14 14 (6021120)
I0223 11:39:06.125491  6396 net.cpp:157] Top shape: 64 480 14 14 (6021120)
I0223 11:39:06.125495  6396 net.cpp:165] Memory required for data: 2318310400
I0223 11:39:06.125499  6396 layer_factory.hpp:77] Creating layer inception_4a/1x1
I0223 11:39:06.125506  6396 net.cpp:100] Creating Layer inception_4a/1x1
I0223 11:39:06.125509  6396 net.cpp:434] inception_4a/1x1 <- pool3/3x3_s2_pool3/3x3_s2_0_split_0
I0223 11:39:06.125514  6396 net.cpp:408] inception_4a/1x1 -> inception_4a/1x1
I0223 11:39:06.128284  6396 net.cpp:150] Setting up inception_4a/1x1
I0223 11:39:06.128295  6396 net.cpp:157] Top shape: 64 192 14 14 (2408448)
I0223 11:39:06.128298  6396 net.cpp:165] Memory required for data: 2327944192
I0223 11:39:06.128305  6396 layer_factory.hpp:77] Creating layer inception_4a/relu_1x1
I0223 11:39:06.128310  6396 net.cpp:100] Creating Layer inception_4a/relu_1x1
I0223 11:39:06.128314  6396 net.cpp:434] inception_4a/relu_1x1 <- inception_4a/1x1
I0223 11:39:06.128319  6396 net.cpp:395] inception_4a/relu_1x1 -> inception_4a/1x1 (in-place)
I0223 11:39:06.128702  6396 net.cpp:150] Setting up inception_4a/relu_1x1
I0223 11:39:06.128711  6396 net.cpp:157] Top shape: 64 192 14 14 (2408448)
I0223 11:39:06.128715  6396 net.cpp:165] Memory required for data: 2337577984
I0223 11:39:06.128718  6396 layer_factory.hpp:77] Creating layer inception_4a/3x3_reduce
I0223 11:39:06.128724  6396 net.cpp:100] Creating Layer inception_4a/3x3_reduce
I0223 11:39:06.128727  6396 net.cpp:434] inception_4a/3x3_reduce <- pool3/3x3_s2_pool3/3x3_s2_0_split_1
I0223 11:39:06.128732  6396 net.cpp:408] inception_4a/3x3_reduce -> inception_4a/3x3_reduce
I0223 11:39:06.129817  6396 net.cpp:150] Setting up inception_4a/3x3_reduce
I0223 11:39:06.129827  6396 net.cpp:157] Top shape: 64 96 14 14 (1204224)
I0223 11:39:06.129830  6396 net.cpp:165] Memory required for data: 2342394880
I0223 11:39:06.129837  6396 layer_factory.hpp:77] Creating layer inception_4a/relu_3x3_reduce
I0223 11:39:06.129843  6396 net.cpp:100] Creating Layer inception_4a/relu_3x3_reduce
I0223 11:39:06.129848  6396 net.cpp:434] inception_4a/relu_3x3_reduce <- inception_4a/3x3_reduce
I0223 11:39:06.129853  6396 net.cpp:395] inception_4a/relu_3x3_reduce -> inception_4a/3x3_reduce (in-place)
I0223 11:39:06.129986  6396 net.cpp:150] Setting up inception_4a/relu_3x3_reduce
I0223 11:39:06.129992  6396 net.cpp:157] Top shape: 64 96 14 14 (1204224)
I0223 11:39:06.129994  6396 net.cpp:165] Memory required for data: 2347211776
I0223 11:39:06.129997  6396 layer_factory.hpp:77] Creating layer inception_4a/3x3
I0223 11:39:06.130002  6396 net.cpp:100] Creating Layer inception_4a/3x3
I0223 11:39:06.130005  6396 net.cpp:434] inception_4a/3x3 <- inception_4a/3x3_reduce
I0223 11:39:06.130010  6396 net.cpp:408] inception_4a/3x3 -> inception_4a/3x3
I0223 11:39:06.132469  6396 net.cpp:150] Setting up inception_4a/3x3
I0223 11:39:06.132479  6396 net.cpp:157] Top shape: 64 208 14 14 (2609152)
I0223 11:39:06.132483  6396 net.cpp:165] Memory required for data: 2357648384
I0223 11:39:06.132486  6396 layer_factory.hpp:77] Creating layer inception_4a/relu_3x3
I0223 11:39:06.132506  6396 net.cpp:100] Creating Layer inception_4a/relu_3x3
I0223 11:39:06.132509  6396 net.cpp:434] inception_4a/relu_3x3 <- inception_4a/3x3
I0223 11:39:06.132529  6396 net.cpp:395] inception_4a/relu_3x3 -> inception_4a/3x3 (in-place)
I0223 11:39:06.132673  6396 net.cpp:150] Setting up inception_4a/relu_3x3
I0223 11:39:06.132679  6396 net.cpp:157] Top shape: 64 208 14 14 (2609152)
I0223 11:39:06.132683  6396 net.cpp:165] Memory required for data: 2368084992
I0223 11:39:06.132694  6396 layer_factory.hpp:77] Creating layer inception_4a/5x5_reduce
I0223 11:39:06.132716  6396 net.cpp:100] Creating Layer inception_4a/5x5_reduce
I0223 11:39:06.132733  6396 net.cpp:434] inception_4a/5x5_reduce <- pool3/3x3_s2_pool3/3x3_s2_0_split_2
I0223 11:39:06.132740  6396 net.cpp:408] inception_4a/5x5_reduce -> inception_4a/5x5_reduce
I0223 11:39:06.133611  6396 net.cpp:150] Setting up inception_4a/5x5_reduce
I0223 11:39:06.133620  6396 net.cpp:157] Top shape: 64 16 14 14 (200704)
I0223 11:39:06.133625  6396 net.cpp:165] Memory required for data: 2368887808
I0223 11:39:06.133628  6396 layer_factory.hpp:77] Creating layer inception_4a/relu_5x5_reduce
I0223 11:39:06.133632  6396 net.cpp:100] Creating Layer inception_4a/relu_5x5_reduce
I0223 11:39:06.133635  6396 net.cpp:434] inception_4a/relu_5x5_reduce <- inception_4a/5x5_reduce
I0223 11:39:06.133641  6396 net.cpp:395] inception_4a/relu_5x5_reduce -> inception_4a/5x5_reduce (in-place)
I0223 11:39:06.134003  6396 net.cpp:150] Setting up inception_4a/relu_5x5_reduce
I0223 11:39:06.134012  6396 net.cpp:157] Top shape: 64 16 14 14 (200704)
I0223 11:39:06.134014  6396 net.cpp:165] Memory required for data: 2369690624
I0223 11:39:06.134017  6396 layer_factory.hpp:77] Creating layer inception_4a/5x5
I0223 11:39:06.134022  6396 net.cpp:100] Creating Layer inception_4a/5x5
I0223 11:39:06.134025  6396 net.cpp:434] inception_4a/5x5 <- inception_4a/5x5_reduce
I0223 11:39:06.134030  6396 net.cpp:408] inception_4a/5x5 -> inception_4a/5x5
I0223 11:39:06.134992  6396 net.cpp:150] Setting up inception_4a/5x5
I0223 11:39:06.135001  6396 net.cpp:157] Top shape: 64 48 14 14 (602112)
I0223 11:39:06.135004  6396 net.cpp:165] Memory required for data: 2372099072
I0223 11:39:06.135009  6396 layer_factory.hpp:77] Creating layer inception_4a/relu_5x5
I0223 11:39:06.135013  6396 net.cpp:100] Creating Layer inception_4a/relu_5x5
I0223 11:39:06.135016  6396 net.cpp:434] inception_4a/relu_5x5 <- inception_4a/5x5
I0223 11:39:06.135020  6396 net.cpp:395] inception_4a/relu_5x5 -> inception_4a/5x5 (in-place)
I0223 11:39:06.135143  6396 net.cpp:150] Setting up inception_4a/relu_5x5
I0223 11:39:06.135149  6396 net.cpp:157] Top shape: 64 48 14 14 (602112)
I0223 11:39:06.135152  6396 net.cpp:165] Memory required for data: 2374507520
I0223 11:39:06.135154  6396 layer_factory.hpp:77] Creating layer inception_4a/pool
I0223 11:39:06.135159  6396 net.cpp:100] Creating Layer inception_4a/pool
I0223 11:39:06.135161  6396 net.cpp:434] inception_4a/pool <- pool3/3x3_s2_pool3/3x3_s2_0_split_3
I0223 11:39:06.135165  6396 net.cpp:408] inception_4a/pool -> inception_4a/pool
I0223 11:39:06.135196  6396 net.cpp:150] Setting up inception_4a/pool
I0223 11:39:06.135200  6396 net.cpp:157] Top shape: 64 480 14 14 (6021120)
I0223 11:39:06.135202  6396 net.cpp:165] Memory required for data: 2398592000
I0223 11:39:06.135205  6396 layer_factory.hpp:77] Creating layer inception_4a/pool_proj
I0223 11:39:06.135210  6396 net.cpp:100] Creating Layer inception_4a/pool_proj
I0223 11:39:06.135212  6396 net.cpp:434] inception_4a/pool_proj <- inception_4a/pool
I0223 11:39:06.135217  6396 net.cpp:408] inception_4a/pool_proj -> inception_4a/pool_proj
I0223 11:39:06.136167  6396 net.cpp:150] Setting up inception_4a/pool_proj
I0223 11:39:06.136175  6396 net.cpp:157] Top shape: 64 64 14 14 (802816)
I0223 11:39:06.136178  6396 net.cpp:165] Memory required for data: 2401803264
I0223 11:39:06.136183  6396 layer_factory.hpp:77] Creating layer inception_4a/relu_pool_proj
I0223 11:39:06.136186  6396 net.cpp:100] Creating Layer inception_4a/relu_pool_proj
I0223 11:39:06.136189  6396 net.cpp:434] inception_4a/relu_pool_proj <- inception_4a/pool_proj
I0223 11:39:06.136193  6396 net.cpp:395] inception_4a/relu_pool_proj -> inception_4a/pool_proj (in-place)
I0223 11:39:06.136320  6396 net.cpp:150] Setting up inception_4a/relu_pool_proj
I0223 11:39:06.136327  6396 net.cpp:157] Top shape: 64 64 14 14 (802816)
I0223 11:39:06.136328  6396 net.cpp:165] Memory required for data: 2405014528
I0223 11:39:06.136330  6396 layer_factory.hpp:77] Creating layer inception_4a/output
I0223 11:39:06.136342  6396 net.cpp:100] Creating Layer inception_4a/output
I0223 11:39:06.136344  6396 net.cpp:434] inception_4a/output <- inception_4a/1x1
I0223 11:39:06.136348  6396 net.cpp:434] inception_4a/output <- inception_4a/3x3
I0223 11:39:06.136350  6396 net.cpp:434] inception_4a/output <- inception_4a/5x5
I0223 11:39:06.136353  6396 net.cpp:434] inception_4a/output <- inception_4a/pool_proj
I0223 11:39:06.136356  6396 net.cpp:408] inception_4a/output -> inception_4a/output
I0223 11:39:06.136376  6396 net.cpp:150] Setting up inception_4a/output
I0223 11:39:06.136380  6396 net.cpp:157] Top shape: 64 512 14 14 (6422528)
I0223 11:39:06.136384  6396 net.cpp:165] Memory required for data: 2430704640
I0223 11:39:06.136385  6396 layer_factory.hpp:77] Creating layer inception_4a/output_inception_4a/output_0_split
I0223 11:39:06.136389  6396 net.cpp:100] Creating Layer inception_4a/output_inception_4a/output_0_split
I0223 11:39:06.136390  6396 net.cpp:434] inception_4a/output_inception_4a/output_0_split <- inception_4a/output
I0223 11:39:06.136394  6396 net.cpp:408] inception_4a/output_inception_4a/output_0_split -> inception_4a/output_inception_4a/output_0_split_0
I0223 11:39:06.136399  6396 net.cpp:408] inception_4a/output_inception_4a/output_0_split -> inception_4a/output_inception_4a/output_0_split_1
I0223 11:39:06.136402  6396 net.cpp:408] inception_4a/output_inception_4a/output_0_split -> inception_4a/output_inception_4a/output_0_split_2
I0223 11:39:06.136406  6396 net.cpp:408] inception_4a/output_inception_4a/output_0_split -> inception_4a/output_inception_4a/output_0_split_3
I0223 11:39:06.136477  6396 net.cpp:150] Setting up inception_4a/output_inception_4a/output_0_split
I0223 11:39:06.136482  6396 net.cpp:157] Top shape: 64 512 14 14 (6422528)
I0223 11:39:06.136484  6396 net.cpp:157] Top shape: 64 512 14 14 (6422528)
I0223 11:39:06.136487  6396 net.cpp:157] Top shape: 64 512 14 14 (6422528)
I0223 11:39:06.136489  6396 net.cpp:157] Top shape: 64 512 14 14 (6422528)
I0223 11:39:06.136492  6396 net.cpp:165] Memory required for data: 2533465088
I0223 11:39:06.136493  6396 layer_factory.hpp:77] Creating layer inception_4b/1x1
I0223 11:39:06.136514  6396 net.cpp:100] Creating Layer inception_4b/1x1
I0223 11:39:06.136517  6396 net.cpp:434] inception_4b/1x1 <- inception_4a/output_inception_4a/output_0_split_0
I0223 11:39:06.136533  6396 net.cpp:408] inception_4b/1x1 -> inception_4b/1x1
I0223 11:39:06.137712  6396 net.cpp:150] Setting up inception_4b/1x1
I0223 11:39:06.137720  6396 net.cpp:157] Top shape: 64 160 14 14 (2007040)
I0223 11:39:06.137723  6396 net.cpp:165] Memory required for data: 2541493248
I0223 11:39:06.137727  6396 layer_factory.hpp:77] Creating layer inception_4b/relu_1x1
I0223 11:39:06.137732  6396 net.cpp:100] Creating Layer inception_4b/relu_1x1
I0223 11:39:06.137735  6396 net.cpp:434] inception_4b/relu_1x1 <- inception_4b/1x1
I0223 11:39:06.137738  6396 net.cpp:395] inception_4b/relu_1x1 -> inception_4b/1x1 (in-place)
I0223 11:39:06.138404  6396 net.cpp:150] Setting up inception_4b/relu_1x1
I0223 11:39:06.138413  6396 net.cpp:157] Top shape: 64 160 14 14 (2007040)
I0223 11:39:06.138415  6396 net.cpp:165] Memory required for data: 2549521408
I0223 11:39:06.138418  6396 layer_factory.hpp:77] Creating layer inception_4b/3x3_reduce
I0223 11:39:06.138424  6396 net.cpp:100] Creating Layer inception_4b/3x3_reduce
I0223 11:39:06.138427  6396 net.cpp:434] inception_4b/3x3_reduce <- inception_4a/output_inception_4a/output_0_split_1
I0223 11:39:06.138434  6396 net.cpp:408] inception_4b/3x3_reduce -> inception_4b/3x3_reduce
I0223 11:39:06.140684  6396 net.cpp:150] Setting up inception_4b/3x3_reduce
I0223 11:39:06.140734  6396 net.cpp:157] Top shape: 64 112 14 14 (1404928)
I0223 11:39:06.140751  6396 net.cpp:165] Memory required for data: 2555141120
I0223 11:39:06.140760  6396 layer_factory.hpp:77] Creating layer inception_4b/relu_3x3_reduce
I0223 11:39:06.140770  6396 net.cpp:100] Creating Layer inception_4b/relu_3x3_reduce
I0223 11:39:06.140777  6396 net.cpp:434] inception_4b/relu_3x3_reduce <- inception_4b/3x3_reduce
I0223 11:39:06.140791  6396 net.cpp:395] inception_4b/relu_3x3_reduce -> inception_4b/3x3_reduce (in-place)
I0223 11:39:06.140943  6396 net.cpp:150] Setting up inception_4b/relu_3x3_reduce
I0223 11:39:06.140949  6396 net.cpp:157] Top shape: 64 112 14 14 (1404928)
I0223 11:39:06.140964  6396 net.cpp:165] Memory required for data: 2560760832
I0223 11:39:06.140967  6396 layer_factory.hpp:77] Creating layer inception_4b/3x3
I0223 11:39:06.140987  6396 net.cpp:100] Creating Layer inception_4b/3x3
I0223 11:39:06.140991  6396 net.cpp:434] inception_4b/3x3 <- inception_4b/3x3_reduce
I0223 11:39:06.140995  6396 net.cpp:408] inception_4b/3x3 -> inception_4b/3x3
I0223 11:39:06.143452  6396 net.cpp:150] Setting up inception_4b/3x3
I0223 11:39:06.143462  6396 net.cpp:157] Top shape: 64 224 14 14 (2809856)
I0223 11:39:06.143465  6396 net.cpp:165] Memory required for data: 2572000256
I0223 11:39:06.143471  6396 layer_factory.hpp:77] Creating layer inception_4b/relu_3x3
I0223 11:39:06.143476  6396 net.cpp:100] Creating Layer inception_4b/relu_3x3
I0223 11:39:06.143479  6396 net.cpp:434] inception_4b/relu_3x3 <- inception_4b/3x3
I0223 11:39:06.143496  6396 net.cpp:395] inception_4b/relu_3x3 -> inception_4b/3x3 (in-place)
I0223 11:39:06.143662  6396 net.cpp:150] Setting up inception_4b/relu_3x3
I0223 11:39:06.143668  6396 net.cpp:157] Top shape: 64 224 14 14 (2809856)
I0223 11:39:06.143671  6396 net.cpp:165] Memory required for data: 2583239680
I0223 11:39:06.143672  6396 layer_factory.hpp:77] Creating layer inception_4b/5x5_reduce
I0223 11:39:06.143694  6396 net.cpp:100] Creating Layer inception_4b/5x5_reduce
I0223 11:39:06.143698  6396 net.cpp:434] inception_4b/5x5_reduce <- inception_4a/output_inception_4a/output_0_split_2
I0223 11:39:06.143704  6396 net.cpp:408] inception_4b/5x5_reduce -> inception_4b/5x5_reduce
I0223 11:39:06.144613  6396 net.cpp:150] Setting up inception_4b/5x5_reduce
I0223 11:39:06.144621  6396 net.cpp:157] Top shape: 64 24 14 14 (301056)
I0223 11:39:06.144624  6396 net.cpp:165] Memory required for data: 2584443904
I0223 11:39:06.144629  6396 layer_factory.hpp:77] Creating layer inception_4b/relu_5x5_reduce
I0223 11:39:06.144634  6396 net.cpp:100] Creating Layer inception_4b/relu_5x5_reduce
I0223 11:39:06.144650  6396 net.cpp:434] inception_4b/relu_5x5_reduce <- inception_4b/5x5_reduce
I0223 11:39:06.144654  6396 net.cpp:395] inception_4b/relu_5x5_reduce -> inception_4b/5x5_reduce (in-place)
I0223 11:39:06.144807  6396 net.cpp:150] Setting up inception_4b/relu_5x5_reduce
I0223 11:39:06.144814  6396 net.cpp:157] Top shape: 64 24 14 14 (301056)
I0223 11:39:06.144815  6396 net.cpp:165] Memory required for data: 2585648128
I0223 11:39:06.144817  6396 layer_factory.hpp:77] Creating layer inception_4b/5x5
I0223 11:39:06.144824  6396 net.cpp:100] Creating Layer inception_4b/5x5
I0223 11:39:06.144826  6396 net.cpp:434] inception_4b/5x5 <- inception_4b/5x5_reduce
I0223 11:39:06.144845  6396 net.cpp:408] inception_4b/5x5 -> inception_4b/5x5
I0223 11:39:06.145875  6396 net.cpp:150] Setting up inception_4b/5x5
I0223 11:39:06.145884  6396 net.cpp:157] Top shape: 64 64 14 14 (802816)
I0223 11:39:06.145887  6396 net.cpp:165] Memory required for data: 2588859392
I0223 11:39:06.145891  6396 layer_factory.hpp:77] Creating layer inception_4b/relu_5x5
I0223 11:39:06.145910  6396 net.cpp:100] Creating Layer inception_4b/relu_5x5
I0223 11:39:06.145913  6396 net.cpp:434] inception_4b/relu_5x5 <- inception_4b/5x5
I0223 11:39:06.145917  6396 net.cpp:395] inception_4b/relu_5x5 -> inception_4b/5x5 (in-place)
I0223 11:39:06.146292  6396 net.cpp:150] Setting up inception_4b/relu_5x5
I0223 11:39:06.146301  6396 net.cpp:157] Top shape: 64 64 14 14 (802816)
I0223 11:39:06.146303  6396 net.cpp:165] Memory required for data: 2592070656
I0223 11:39:06.146306  6396 layer_factory.hpp:77] Creating layer inception_4b/pool
I0223 11:39:06.146311  6396 net.cpp:100] Creating Layer inception_4b/pool
I0223 11:39:06.146328  6396 net.cpp:434] inception_4b/pool <- inception_4a/output_inception_4a/output_0_split_3
I0223 11:39:06.146354  6396 net.cpp:408] inception_4b/pool -> inception_4b/pool
I0223 11:39:06.146402  6396 net.cpp:150] Setting up inception_4b/pool
I0223 11:39:06.146421  6396 net.cpp:157] Top shape: 64 512 14 14 (6422528)
I0223 11:39:06.146423  6396 net.cpp:165] Memory required for data: 2617760768
I0223 11:39:06.146425  6396 layer_factory.hpp:77] Creating layer inception_4b/pool_proj
I0223 11:39:06.146445  6396 net.cpp:100] Creating Layer inception_4b/pool_proj
I0223 11:39:06.146447  6396 net.cpp:434] inception_4b/pool_proj <- inception_4b/pool
I0223 11:39:06.146464  6396 net.cpp:408] inception_4b/pool_proj -> inception_4b/pool_proj
I0223 11:39:06.147498  6396 net.cpp:150] Setting up inception_4b/pool_proj
I0223 11:39:06.147506  6396 net.cpp:157] Top shape: 64 64 14 14 (802816)
I0223 11:39:06.147508  6396 net.cpp:165] Memory required for data: 2620972032
I0223 11:39:06.147513  6396 layer_factory.hpp:77] Creating layer inception_4b/relu_pool_proj
I0223 11:39:06.147521  6396 net.cpp:100] Creating Layer inception_4b/relu_pool_proj
I0223 11:39:06.147523  6396 net.cpp:434] inception_4b/relu_pool_proj <- inception_4b/pool_proj
I0223 11:39:06.147526  6396 net.cpp:395] inception_4b/relu_pool_proj -> inception_4b/pool_proj (in-place)
I0223 11:39:06.147652  6396 net.cpp:150] Setting up inception_4b/relu_pool_proj
I0223 11:39:06.147658  6396 net.cpp:157] Top shape: 64 64 14 14 (802816)
I0223 11:39:06.147660  6396 net.cpp:165] Memory required for data: 2624183296
I0223 11:39:06.147662  6396 layer_factory.hpp:77] Creating layer inception_4b/output
I0223 11:39:06.147666  6396 net.cpp:100] Creating Layer inception_4b/output
I0223 11:39:06.147670  6396 net.cpp:434] inception_4b/output <- inception_4b/1x1
I0223 11:39:06.147672  6396 net.cpp:434] inception_4b/output <- inception_4b/3x3
I0223 11:39:06.147675  6396 net.cpp:434] inception_4b/output <- inception_4b/5x5
I0223 11:39:06.147677  6396 net.cpp:434] inception_4b/output <- inception_4b/pool_proj
I0223 11:39:06.147681  6396 net.cpp:408] inception_4b/output -> inception_4b/output
I0223 11:39:06.147702  6396 net.cpp:150] Setting up inception_4b/output
I0223 11:39:06.147706  6396 net.cpp:157] Top shape: 64 512 14 14 (6422528)
I0223 11:39:06.147707  6396 net.cpp:165] Memory required for data: 2649873408
I0223 11:39:06.147711  6396 layer_factory.hpp:77] Creating layer inception_4b/output_inception_4b/output_0_split
I0223 11:39:06.147714  6396 net.cpp:100] Creating Layer inception_4b/output_inception_4b/output_0_split
I0223 11:39:06.147716  6396 net.cpp:434] inception_4b/output_inception_4b/output_0_split <- inception_4b/output
I0223 11:39:06.147719  6396 net.cpp:408] inception_4b/output_inception_4b/output_0_split -> inception_4b/output_inception_4b/output_0_split_0
I0223 11:39:06.147723  6396 net.cpp:408] inception_4b/output_inception_4b/output_0_split -> inception_4b/output_inception_4b/output_0_split_1
I0223 11:39:06.147728  6396 net.cpp:408] inception_4b/output_inception_4b/output_0_split -> inception_4b/output_inception_4b/output_0_split_2
I0223 11:39:06.147732  6396 net.cpp:408] inception_4b/output_inception_4b/output_0_split -> inception_4b/output_inception_4b/output_0_split_3
I0223 11:39:06.147776  6396 net.cpp:150] Setting up inception_4b/output_inception_4b/output_0_split
I0223 11:39:06.147780  6396 net.cpp:157] Top shape: 64 512 14 14 (6422528)
I0223 11:39:06.147783  6396 net.cpp:157] Top shape: 64 512 14 14 (6422528)
I0223 11:39:06.147785  6396 net.cpp:157] Top shape: 64 512 14 14 (6422528)
I0223 11:39:06.147789  6396 net.cpp:157] Top shape: 64 512 14 14 (6422528)
I0223 11:39:06.147790  6396 net.cpp:165] Memory required for data: 2752633856
I0223 11:39:06.147792  6396 layer_factory.hpp:77] Creating layer inception_4c/1x1
I0223 11:39:06.147797  6396 net.cpp:100] Creating Layer inception_4c/1x1
I0223 11:39:06.147800  6396 net.cpp:434] inception_4c/1x1 <- inception_4b/output_inception_4b/output_0_split_0
I0223 11:39:06.147804  6396 net.cpp:408] inception_4c/1x1 -> inception_4c/1x1
I0223 11:39:06.148928  6396 net.cpp:150] Setting up inception_4c/1x1
I0223 11:39:06.148936  6396 net.cpp:157] Top shape: 64 128 14 14 (1605632)
I0223 11:39:06.148946  6396 net.cpp:165] Memory required for data: 2759056384
I0223 11:39:06.148950  6396 layer_factory.hpp:77] Creating layer inception_4c/relu_1x1
I0223 11:39:06.148955  6396 net.cpp:100] Creating Layer inception_4c/relu_1x1
I0223 11:39:06.148958  6396 net.cpp:434] inception_4c/relu_1x1 <- inception_4c/1x1
I0223 11:39:06.148962  6396 net.cpp:395] inception_4c/relu_1x1 -> inception_4c/1x1 (in-place)
I0223 11:39:06.149089  6396 net.cpp:150] Setting up inception_4c/relu_1x1
I0223 11:39:06.149094  6396 net.cpp:157] Top shape: 64 128 14 14 (1605632)
I0223 11:39:06.149096  6396 net.cpp:165] Memory required for data: 2765478912
I0223 11:39:06.149099  6396 layer_factory.hpp:77] Creating layer inception_4c/3x3_reduce
I0223 11:39:06.149104  6396 net.cpp:100] Creating Layer inception_4c/3x3_reduce
I0223 11:39:06.149107  6396 net.cpp:434] inception_4c/3x3_reduce <- inception_4b/output_inception_4b/output_0_split_1
I0223 11:39:06.149111  6396 net.cpp:408] inception_4c/3x3_reduce -> inception_4c/3x3_reduce
I0223 11:39:06.150465  6396 net.cpp:150] Setting up inception_4c/3x3_reduce
I0223 11:39:06.150472  6396 net.cpp:157] Top shape: 64 128 14 14 (1605632)
I0223 11:39:06.150475  6396 net.cpp:165] Memory required for data: 2771901440
I0223 11:39:06.150480  6396 layer_factory.hpp:77] Creating layer inception_4c/relu_3x3_reduce
I0223 11:39:06.150485  6396 net.cpp:100] Creating Layer inception_4c/relu_3x3_reduce
I0223 11:39:06.150487  6396 net.cpp:434] inception_4c/relu_3x3_reduce <- inception_4c/3x3_reduce
I0223 11:39:06.150490  6396 net.cpp:395] inception_4c/relu_3x3_reduce -> inception_4c/3x3_reduce (in-place)
I0223 11:39:06.150893  6396 net.cpp:150] Setting up inception_4c/relu_3x3_reduce
I0223 11:39:06.150900  6396 net.cpp:157] Top shape: 64 128 14 14 (1605632)
I0223 11:39:06.150903  6396 net.cpp:165] Memory required for data: 2778323968
I0223 11:39:06.150905  6396 layer_factory.hpp:77] Creating layer inception_4c/3x3
I0223 11:39:06.150912  6396 net.cpp:100] Creating Layer inception_4c/3x3
I0223 11:39:06.150914  6396 net.cpp:434] inception_4c/3x3 <- inception_4c/3x3_reduce
I0223 11:39:06.150918  6396 net.cpp:408] inception_4c/3x3 -> inception_4c/3x3
I0223 11:39:06.153801  6396 net.cpp:150] Setting up inception_4c/3x3
I0223 11:39:06.153810  6396 net.cpp:157] Top shape: 64 256 14 14 (3211264)
I0223 11:39:06.153813  6396 net.cpp:165] Memory required for data: 2791169024
I0223 11:39:06.153817  6396 layer_factory.hpp:77] Creating layer inception_4c/relu_3x3
I0223 11:39:06.153821  6396 net.cpp:100] Creating Layer inception_4c/relu_3x3
I0223 11:39:06.153825  6396 net.cpp:434] inception_4c/relu_3x3 <- inception_4c/3x3
I0223 11:39:06.153827  6396 net.cpp:395] inception_4c/relu_3x3 -> inception_4c/3x3 (in-place)
I0223 11:39:06.153959  6396 net.cpp:150] Setting up inception_4c/relu_3x3
I0223 11:39:06.153964  6396 net.cpp:157] Top shape: 64 256 14 14 (3211264)
I0223 11:39:06.153966  6396 net.cpp:165] Memory required for data: 2804014080
I0223 11:39:06.153969  6396 layer_factory.hpp:77] Creating layer inception_4c/5x5_reduce
I0223 11:39:06.153975  6396 net.cpp:100] Creating Layer inception_4c/5x5_reduce
I0223 11:39:06.153977  6396 net.cpp:434] inception_4c/5x5_reduce <- inception_4b/output_inception_4b/output_0_split_2
I0223 11:39:06.153981  6396 net.cpp:408] inception_4c/5x5_reduce -> inception_4c/5x5_reduce
I0223 11:39:06.155236  6396 net.cpp:150] Setting up inception_4c/5x5_reduce
I0223 11:39:06.155246  6396 net.cpp:157] Top shape: 64 24 14 14 (301056)
I0223 11:39:06.155251  6396 net.cpp:165] Memory required for data: 2805218304
I0223 11:39:06.155256  6396 layer_factory.hpp:77] Creating layer inception_4c/relu_5x5_reduce
I0223 11:39:06.155277  6396 net.cpp:100] Creating Layer inception_4c/relu_5x5_reduce
I0223 11:39:06.155280  6396 net.cpp:434] inception_4c/relu_5x5_reduce <- inception_4c/5x5_reduce
I0223 11:39:06.155285  6396 net.cpp:395] inception_4c/relu_5x5_reduce -> inception_4c/5x5_reduce (in-place)
I0223 11:39:06.155459  6396 net.cpp:150] Setting up inception_4c/relu_5x5_reduce
I0223 11:39:06.155490  6396 net.cpp:157] Top shape: 64 24 14 14 (301056)
I0223 11:39:06.155493  6396 net.cpp:165] Memory required for data: 2806422528
I0223 11:39:06.155496  6396 layer_factory.hpp:77] Creating layer inception_4c/5x5
I0223 11:39:06.155506  6396 net.cpp:100] Creating Layer inception_4c/5x5
I0223 11:39:06.155510  6396 net.cpp:434] inception_4c/5x5 <- inception_4c/5x5_reduce
I0223 11:39:06.155517  6396 net.cpp:408] inception_4c/5x5 -> inception_4c/5x5
I0223 11:39:06.157230  6396 net.cpp:150] Setting up inception_4c/5x5
I0223 11:39:06.157249  6396 net.cpp:157] Top shape: 64 64 14 14 (802816)
I0223 11:39:06.157253  6396 net.cpp:165] Memory required for data: 2809633792
I0223 11:39:06.157259  6396 layer_factory.hpp:77] Creating layer inception_4c/relu_5x5
I0223 11:39:06.157266  6396 net.cpp:100] Creating Layer inception_4c/relu_5x5
I0223 11:39:06.157270  6396 net.cpp:434] inception_4c/relu_5x5 <- inception_4c/5x5
I0223 11:39:06.157275  6396 net.cpp:395] inception_4c/relu_5x5 -> inception_4c/5x5 (in-place)
I0223 11:39:06.157719  6396 net.cpp:150] Setting up inception_4c/relu_5x5
I0223 11:39:06.157728  6396 net.cpp:157] Top shape: 64 64 14 14 (802816)
I0223 11:39:06.157730  6396 net.cpp:165] Memory required for data: 2812845056
I0223 11:39:06.157733  6396 layer_factory.hpp:77] Creating layer inception_4c/pool
I0223 11:39:06.157737  6396 net.cpp:100] Creating Layer inception_4c/pool
I0223 11:39:06.157740  6396 net.cpp:434] inception_4c/pool <- inception_4b/output_inception_4b/output_0_split_3
I0223 11:39:06.157747  6396 net.cpp:408] inception_4c/pool -> inception_4c/pool
I0223 11:39:06.157789  6396 net.cpp:150] Setting up inception_4c/pool
I0223 11:39:06.157793  6396 net.cpp:157] Top shape: 64 512 14 14 (6422528)
I0223 11:39:06.157795  6396 net.cpp:165] Memory required for data: 2838535168
I0223 11:39:06.157797  6396 layer_factory.hpp:77] Creating layer inception_4c/pool_proj
I0223 11:39:06.157804  6396 net.cpp:100] Creating Layer inception_4c/pool_proj
I0223 11:39:06.157806  6396 net.cpp:434] inception_4c/pool_proj <- inception_4c/pool
I0223 11:39:06.157810  6396 net.cpp:408] inception_4c/pool_proj -> inception_4c/pool_proj
I0223 11:39:06.159895  6396 net.cpp:150] Setting up inception_4c/pool_proj
I0223 11:39:06.159904  6396 net.cpp:157] Top shape: 64 64 14 14 (802816)
I0223 11:39:06.159906  6396 net.cpp:165] Memory required for data: 2841746432
I0223 11:39:06.159915  6396 layer_factory.hpp:77] Creating layer inception_4c/relu_pool_proj
I0223 11:39:06.159919  6396 net.cpp:100] Creating Layer inception_4c/relu_pool_proj
I0223 11:39:06.159922  6396 net.cpp:434] inception_4c/relu_pool_proj <- inception_4c/pool_proj
I0223 11:39:06.159927  6396 net.cpp:395] inception_4c/relu_pool_proj -> inception_4c/pool_proj (in-place)
I0223 11:39:06.160053  6396 net.cpp:150] Setting up inception_4c/relu_pool_proj
I0223 11:39:06.160058  6396 net.cpp:157] Top shape: 64 64 14 14 (802816)
I0223 11:39:06.160060  6396 net.cpp:165] Memory required for data: 2844957696
I0223 11:39:06.160063  6396 layer_factory.hpp:77] Creating layer inception_4c/output
I0223 11:39:06.160066  6396 net.cpp:100] Creating Layer inception_4c/output
I0223 11:39:06.160068  6396 net.cpp:434] inception_4c/output <- inception_4c/1x1
I0223 11:39:06.160071  6396 net.cpp:434] inception_4c/output <- inception_4c/3x3
I0223 11:39:06.160074  6396 net.cpp:434] inception_4c/output <- inception_4c/5x5
I0223 11:39:06.160078  6396 net.cpp:434] inception_4c/output <- inception_4c/pool_proj
I0223 11:39:06.160080  6396 net.cpp:408] inception_4c/output -> inception_4c/output
I0223 11:39:06.160104  6396 net.cpp:150] Setting up inception_4c/output
I0223 11:39:06.160107  6396 net.cpp:157] Top shape: 64 512 14 14 (6422528)
I0223 11:39:06.160109  6396 net.cpp:165] Memory required for data: 2870647808
I0223 11:39:06.160111  6396 layer_factory.hpp:77] Creating layer inception_4c/output_inception_4c/output_0_split
I0223 11:39:06.160115  6396 net.cpp:100] Creating Layer inception_4c/output_inception_4c/output_0_split
I0223 11:39:06.160116  6396 net.cpp:434] inception_4c/output_inception_4c/output_0_split <- inception_4c/output
I0223 11:39:06.160130  6396 net.cpp:408] inception_4c/output_inception_4c/output_0_split -> inception_4c/output_inception_4c/output_0_split_0
I0223 11:39:06.160135  6396 net.cpp:408] inception_4c/output_inception_4c/output_0_split -> inception_4c/output_inception_4c/output_0_split_1
I0223 11:39:06.160138  6396 net.cpp:408] inception_4c/output_inception_4c/output_0_split -> inception_4c/output_inception_4c/output_0_split_2
I0223 11:39:06.160141  6396 net.cpp:408] inception_4c/output_inception_4c/output_0_split -> inception_4c/output_inception_4c/output_0_split_3
I0223 11:39:06.160188  6396 net.cpp:150] Setting up inception_4c/output_inception_4c/output_0_split
I0223 11:39:06.160192  6396 net.cpp:157] Top shape: 64 512 14 14 (6422528)
I0223 11:39:06.160194  6396 net.cpp:157] Top shape: 64 512 14 14 (6422528)
I0223 11:39:06.160197  6396 net.cpp:157] Top shape: 64 512 14 14 (6422528)
I0223 11:39:06.160199  6396 net.cpp:157] Top shape: 64 512 14 14 (6422528)
I0223 11:39:06.160202  6396 net.cpp:165] Memory required for data: 2973408256
I0223 11:39:06.160203  6396 layer_factory.hpp:77] Creating layer inception_4d/1x1
I0223 11:39:06.160210  6396 net.cpp:100] Creating Layer inception_4d/1x1
I0223 11:39:06.160213  6396 net.cpp:434] inception_4d/1x1 <- inception_4c/output_inception_4c/output_0_split_0
I0223 11:39:06.160218  6396 net.cpp:408] inception_4d/1x1 -> inception_4d/1x1
I0223 11:39:06.161809  6396 net.cpp:150] Setting up inception_4d/1x1
I0223 11:39:06.161818  6396 net.cpp:157] Top shape: 64 112 14 14 (1404928)
I0223 11:39:06.161820  6396 net.cpp:165] Memory required for data: 2979027968
I0223 11:39:06.161825  6396 layer_factory.hpp:77] Creating layer inception_4d/relu_1x1
I0223 11:39:06.161830  6396 net.cpp:100] Creating Layer inception_4d/relu_1x1
I0223 11:39:06.161833  6396 net.cpp:434] inception_4d/relu_1x1 <- inception_4d/1x1
I0223 11:39:06.161836  6396 net.cpp:395] inception_4d/relu_1x1 -> inception_4d/1x1 (in-place)
I0223 11:39:06.161962  6396 net.cpp:150] Setting up inception_4d/relu_1x1
I0223 11:39:06.161968  6396 net.cpp:157] Top shape: 64 112 14 14 (1404928)
I0223 11:39:06.161970  6396 net.cpp:165] Memory required for data: 2984647680
I0223 11:39:06.161973  6396 layer_factory.hpp:77] Creating layer inception_4d/3x3_reduce
I0223 11:39:06.161979  6396 net.cpp:100] Creating Layer inception_4d/3x3_reduce
I0223 11:39:06.161981  6396 net.cpp:434] inception_4d/3x3_reduce <- inception_4c/output_inception_4c/output_0_split_1
I0223 11:39:06.161985  6396 net.cpp:408] inception_4d/3x3_reduce -> inception_4d/3x3_reduce
I0223 11:39:06.163221  6396 net.cpp:150] Setting up inception_4d/3x3_reduce
I0223 11:39:06.163229  6396 net.cpp:157] Top shape: 64 144 14 14 (1806336)
I0223 11:39:06.163233  6396 net.cpp:165] Memory required for data: 2991873024
I0223 11:39:06.163238  6396 layer_factory.hpp:77] Creating layer inception_4d/relu_3x3_reduce
I0223 11:39:06.163241  6396 net.cpp:100] Creating Layer inception_4d/relu_3x3_reduce
I0223 11:39:06.163244  6396 net.cpp:434] inception_4d/relu_3x3_reduce <- inception_4d/3x3_reduce
I0223 11:39:06.163249  6396 net.cpp:395] inception_4d/relu_3x3_reduce -> inception_4d/3x3_reduce (in-place)
I0223 11:39:06.163373  6396 net.cpp:150] Setting up inception_4d/relu_3x3_reduce
I0223 11:39:06.163378  6396 net.cpp:157] Top shape: 64 144 14 14 (1806336)
I0223 11:39:06.163381  6396 net.cpp:165] Memory required for data: 2999098368
I0223 11:39:06.163383  6396 layer_factory.hpp:77] Creating layer inception_4d/3x3
I0223 11:39:06.163388  6396 net.cpp:100] Creating Layer inception_4d/3x3
I0223 11:39:06.163391  6396 net.cpp:434] inception_4d/3x3 <- inception_4d/3x3_reduce
I0223 11:39:06.163395  6396 net.cpp:408] inception_4d/3x3 -> inception_4d/3x3
I0223 11:39:06.166982  6396 net.cpp:150] Setting up inception_4d/3x3
I0223 11:39:06.166990  6396 net.cpp:157] Top shape: 64 288 14 14 (3612672)
I0223 11:39:06.166993  6396 net.cpp:165] Memory required for data: 3013549056
I0223 11:39:06.166999  6396 layer_factory.hpp:77] Creating layer inception_4d/relu_3x3
I0223 11:39:06.167012  6396 net.cpp:100] Creating Layer inception_4d/relu_3x3
I0223 11:39:06.167016  6396 net.cpp:434] inception_4d/relu_3x3 <- inception_4d/3x3
I0223 11:39:06.167021  6396 net.cpp:395] inception_4d/relu_3x3 -> inception_4d/3x3 (in-place)
I0223 11:39:06.167387  6396 net.cpp:150] Setting up inception_4d/relu_3x3
I0223 11:39:06.167394  6396 net.cpp:157] Top shape: 64 288 14 14 (3612672)
I0223 11:39:06.167397  6396 net.cpp:165] Memory required for data: 3027999744
I0223 11:39:06.167399  6396 layer_factory.hpp:77] Creating layer inception_4d/5x5_reduce
I0223 11:39:06.167405  6396 net.cpp:100] Creating Layer inception_4d/5x5_reduce
I0223 11:39:06.167408  6396 net.cpp:434] inception_4d/5x5_reduce <- inception_4c/output_inception_4c/output_0_split_2
I0223 11:39:06.167412  6396 net.cpp:408] inception_4d/5x5_reduce -> inception_4d/5x5_reduce
I0223 11:39:06.168339  6396 net.cpp:150] Setting up inception_4d/5x5_reduce
I0223 11:39:06.168346  6396 net.cpp:157] Top shape: 64 32 14 14 (401408)
I0223 11:39:06.168349  6396 net.cpp:165] Memory required for data: 3029605376
I0223 11:39:06.168352  6396 layer_factory.hpp:77] Creating layer inception_4d/relu_5x5_reduce
I0223 11:39:06.168356  6396 net.cpp:100] Creating Layer inception_4d/relu_5x5_reduce
I0223 11:39:06.168359  6396 net.cpp:434] inception_4d/relu_5x5_reduce <- inception_4d/5x5_reduce
I0223 11:39:06.168364  6396 net.cpp:395] inception_4d/relu_5x5_reduce -> inception_4d/5x5_reduce (in-place)
I0223 11:39:06.168491  6396 net.cpp:150] Setting up inception_4d/relu_5x5_reduce
I0223 11:39:06.168498  6396 net.cpp:157] Top shape: 64 32 14 14 (401408)
I0223 11:39:06.168500  6396 net.cpp:165] Memory required for data: 3031211008
I0223 11:39:06.168503  6396 layer_factory.hpp:77] Creating layer inception_4d/5x5
I0223 11:39:06.168509  6396 net.cpp:100] Creating Layer inception_4d/5x5
I0223 11:39:06.168511  6396 net.cpp:434] inception_4d/5x5 <- inception_4d/5x5_reduce
I0223 11:39:06.168527  6396 net.cpp:408] inception_4d/5x5 -> inception_4d/5x5
I0223 11:39:06.169605  6396 net.cpp:150] Setting up inception_4d/5x5
I0223 11:39:06.169613  6396 net.cpp:157] Top shape: 64 64 14 14 (802816)
I0223 11:39:06.169615  6396 net.cpp:165] Memory required for data: 3034422272
I0223 11:39:06.169620  6396 layer_factory.hpp:77] Creating layer inception_4d/relu_5x5
I0223 11:39:06.169625  6396 net.cpp:100] Creating Layer inception_4d/relu_5x5
I0223 11:39:06.169627  6396 net.cpp:434] inception_4d/relu_5x5 <- inception_4d/5x5
I0223 11:39:06.169631  6396 net.cpp:395] inception_4d/relu_5x5 -> inception_4d/5x5 (in-place)
I0223 11:39:06.169761  6396 net.cpp:150] Setting up inception_4d/relu_5x5
I0223 11:39:06.169767  6396 net.cpp:157] Top shape: 64 64 14 14 (802816)
I0223 11:39:06.169770  6396 net.cpp:165] Memory required for data: 3037633536
I0223 11:39:06.169772  6396 layer_factory.hpp:77] Creating layer inception_4d/pool
I0223 11:39:06.169776  6396 net.cpp:100] Creating Layer inception_4d/pool
I0223 11:39:06.169778  6396 net.cpp:434] inception_4d/pool <- inception_4c/output_inception_4c/output_0_split_3
I0223 11:39:06.169783  6396 net.cpp:408] inception_4d/pool -> inception_4d/pool
I0223 11:39:06.169816  6396 net.cpp:150] Setting up inception_4d/pool
I0223 11:39:06.169821  6396 net.cpp:157] Top shape: 64 512 14 14 (6422528)
I0223 11:39:06.169822  6396 net.cpp:165] Memory required for data: 3063323648
I0223 11:39:06.169824  6396 layer_factory.hpp:77] Creating layer inception_4d/pool_proj
I0223 11:39:06.169829  6396 net.cpp:100] Creating Layer inception_4d/pool_proj
I0223 11:39:06.169831  6396 net.cpp:434] inception_4d/pool_proj <- inception_4d/pool
I0223 11:39:06.169836  6396 net.cpp:408] inception_4d/pool_proj -> inception_4d/pool_proj
I0223 11:39:06.170856  6396 net.cpp:150] Setting up inception_4d/pool_proj
I0223 11:39:06.170864  6396 net.cpp:157] Top shape: 64 64 14 14 (802816)
I0223 11:39:06.170866  6396 net.cpp:165] Memory required for data: 3066534912
I0223 11:39:06.170871  6396 layer_factory.hpp:77] Creating layer inception_4d/relu_pool_proj
I0223 11:39:06.170876  6396 net.cpp:100] Creating Layer inception_4d/relu_pool_proj
I0223 11:39:06.170886  6396 net.cpp:434] inception_4d/relu_pool_proj <- inception_4d/pool_proj
I0223 11:39:06.170889  6396 net.cpp:395] inception_4d/relu_pool_proj -> inception_4d/pool_proj (in-place)
I0223 11:39:06.171324  6396 net.cpp:150] Setting up inception_4d/relu_pool_proj
I0223 11:39:06.171345  6396 net.cpp:157] Top shape: 64 64 14 14 (802816)
I0223 11:39:06.171347  6396 net.cpp:165] Memory required for data: 3069746176
I0223 11:39:06.171350  6396 layer_factory.hpp:77] Creating layer inception_4d/output
I0223 11:39:06.171355  6396 net.cpp:100] Creating Layer inception_4d/output
I0223 11:39:06.171356  6396 net.cpp:434] inception_4d/output <- inception_4d/1x1
I0223 11:39:06.171360  6396 net.cpp:434] inception_4d/output <- inception_4d/3x3
I0223 11:39:06.171363  6396 net.cpp:434] inception_4d/output <- inception_4d/5x5
I0223 11:39:06.171365  6396 net.cpp:434] inception_4d/output <- inception_4d/pool_proj
I0223 11:39:06.171368  6396 net.cpp:408] inception_4d/output -> inception_4d/output
I0223 11:39:06.171391  6396 net.cpp:150] Setting up inception_4d/output
I0223 11:39:06.171396  6396 net.cpp:157] Top shape: 64 528 14 14 (6623232)
I0223 11:39:06.171397  6396 net.cpp:165] Memory required for data: 3096239104
I0223 11:39:06.171399  6396 layer_factory.hpp:77] Creating layer loss2/ave_pool
I0223 11:39:06.171404  6396 net.cpp:100] Creating Layer loss2/ave_pool
I0223 11:39:06.171406  6396 net.cpp:434] loss2/ave_pool <- inception_4d/output
I0223 11:39:06.171424  6396 net.cpp:408] loss2/ave_pool -> loss2/ave_pool
I0223 11:39:06.171690  6396 net.cpp:150] Setting up loss2/ave_pool
I0223 11:39:06.171711  6396 net.cpp:157] Top shape: 64 528 4 4 (540672)
I0223 11:39:06.171727  6396 net.cpp:165] Memory required for data: 3098401792
I0223 11:39:06.171731  6396 layer_factory.hpp:77] Creating layer loss2/conv
I0223 11:39:06.171752  6396 net.cpp:100] Creating Layer loss2/conv
I0223 11:39:06.171756  6396 net.cpp:434] loss2/conv <- loss2/ave_pool
I0223 11:39:06.171761  6396 net.cpp:408] loss2/conv -> loss2/conv
I0223 11:39:06.173522  6396 net.cpp:150] Setting up loss2/conv
I0223 11:39:06.173532  6396 net.cpp:157] Top shape: 64 128 4 4 (131072)
I0223 11:39:06.173535  6396 net.cpp:165] Memory required for data: 3098926080
I0223 11:39:06.173540  6396 layer_factory.hpp:77] Creating layer loss2/relu_conv
I0223 11:39:06.173545  6396 net.cpp:100] Creating Layer loss2/relu_conv
I0223 11:39:06.173548  6396 net.cpp:434] loss2/relu_conv <- loss2/conv
I0223 11:39:06.173552  6396 net.cpp:395] loss2/relu_conv -> loss2/conv (in-place)
I0223 11:39:06.173683  6396 net.cpp:150] Setting up loss2/relu_conv
I0223 11:39:06.173689  6396 net.cpp:157] Top shape: 64 128 4 4 (131072)
I0223 11:39:06.173691  6396 net.cpp:165] Memory required for data: 3099450368
I0223 11:39:06.173693  6396 layer_factory.hpp:77] Creating layer loss2/fc
I0223 11:39:06.173701  6396 net.cpp:100] Creating Layer loss2/fc
I0223 11:39:06.173702  6396 net.cpp:434] loss2/fc <- loss2/conv
I0223 11:39:06.173707  6396 net.cpp:408] loss2/fc -> loss2/fc
I0223 11:39:06.193265  6396 net.cpp:150] Setting up loss2/fc
I0223 11:39:06.193285  6396 net.cpp:157] Top shape: 64 1024 (65536)
I0223 11:39:06.193289  6396 net.cpp:165] Memory required for data: 3099712512
I0223 11:39:06.193296  6396 layer_factory.hpp:77] Creating layer loss2/relu_fc
I0223 11:39:06.193305  6396 net.cpp:100] Creating Layer loss2/relu_fc
I0223 11:39:06.193308  6396 net.cpp:434] loss2/relu_fc <- loss2/fc
I0223 11:39:06.193313  6396 net.cpp:395] loss2/relu_fc -> loss2/fc (in-place)
I0223 11:39:06.193825  6396 net.cpp:150] Setting up loss2/relu_fc
I0223 11:39:06.193832  6396 net.cpp:157] Top shape: 64 1024 (65536)
I0223 11:39:06.193835  6396 net.cpp:165] Memory required for data: 3099974656
I0223 11:39:06.193837  6396 layer_factory.hpp:77] Creating layer loss2/drop_fc
I0223 11:39:06.193845  6396 net.cpp:100] Creating Layer loss2/drop_fc
I0223 11:39:06.193846  6396 net.cpp:434] loss2/drop_fc <- loss2/fc
I0223 11:39:06.193851  6396 net.cpp:395] loss2/drop_fc -> loss2/fc (in-place)
I0223 11:39:06.193878  6396 net.cpp:150] Setting up loss2/drop_fc
I0223 11:39:06.193895  6396 net.cpp:157] Top shape: 64 1024 (65536)
I0223 11:39:06.193897  6396 net.cpp:165] Memory required for data: 3100236800
I0223 11:39:06.193899  6396 layer_factory.hpp:77] Creating layer loss2/classifier
I0223 11:39:06.193904  6396 net.cpp:100] Creating Layer loss2/classifier
I0223 11:39:06.193907  6396 net.cpp:434] loss2/classifier <- loss2/fc
I0223 11:39:06.193912  6396 net.cpp:408] loss2/classifier -> loss2/classifier
I0223 11:39:06.204859  6396 net.cpp:150] Setting up loss2/classifier
I0223 11:39:06.204897  6396 net.cpp:157] Top shape: 64 1901 (121664)
I0223 11:39:06.204900  6396 net.cpp:165] Memory required for data: 3100723456
I0223 11:39:06.204923  6396 layer_factory.hpp:77] Creating layer loss
I0223 11:39:06.204938  6396 net.cpp:100] Creating Layer loss
I0223 11:39:06.204943  6396 net.cpp:434] loss <- loss2/classifier
I0223 11:39:06.204947  6396 net.cpp:434] loss <- label
I0223 11:39:06.204953  6396 net.cpp:408] loss -> loss
I0223 11:39:06.204963  6396 layer_factory.hpp:77] Creating layer loss
…
I0223 11:39:06.208127  6396 solver.cpp:196] Creating test net (#0) specified by net file: train_val.prototxt
I0223 11:39:06.208204  6396 net.cpp:322] The NetState phase (1) differed from the phase (0) specified by a rule in layer data
I0223 11:39:06.208588  6396 net.cpp:58] Initializing net from parameters: 
name: "GoogleNet"
state {
  phase: TEST
}
layer {
  name: "data"
  type: "Data"
  top: "data"
  top: "label"
  include {
    phase: TEST
  }
  transform_param {
    mirror: false
    crop_size: 227
    mean_file: "mean.binaryproto"
  }
  data_param {
    source: "img_test_lmdb"
    batch_size: 50
    backend: LMDB
  }
}
layer {
  name: "conv1/7x7_s2"
  type: "Convolution"
  bottom: "data"
  top: "conv1/7x7_s2"
  convolution_param {
    num_output: 64
    pad: 3
    kernel_size: 7
    stride: 2
    weight_filler {
      type: "xavier"
      std: 0.1
    }
    bias_filler {
      type: "constant"
      value: 0.2
    }
  }
}
layer {
  name: "conv1/relu_7x7"
  type: "ReLU"
  bottom: "conv1/7x7_s2"
  top: "conv1/7x7_s2"
}
layer {
  name: "pool1/3x3_s2"
  type: "Pooling"
  bottom: "conv1/7x7_s2"
  top: "pool1/3x3_s2"
  pooling_param {
    pool: MAX
    kernel_size: 3
    stride: 2
  }
}
layer {
  name: "pool1/norm1"
  type: "LRN"
  bottom: "pool1/3x3_s2"
  top: "pool1/norm1"
  lrn_param {
    local_size: 5
    alpha: 0.0001
    beta: 0.75
  }
}
layer {
  name: "conv2/3x3_reduce"
  type: "Convolution"
  bottom: "pool1/norm1"
  top: "conv2/3x3_reduce"
  convolution_param {
    num_output: 64
    kernel_size: 1
    weight_filler {
      type: "xavier"
      std: 0.1
    }
    bias_filler {
      type: "constant"
      value: 0.2
    }
  }
}
layer {
  name: "conv2/relu_3x3_reduce"
  type: "ReLU"
  bottom: "conv2/3x3_reduce"
  top: "conv2/3x3_reduce"
}
layer {
  name: "conv2/3x3"
  type: "Convolution"
  bottom: "conv2/3x3_reduce"
  top: "conv2/3x3"
  convolution_param {
    num_output: 192
    pad: 1
    kernel_size: 3
    weight_filler {
      type: "xavier"
      std: 0.03
    }
    bias_filler {
      type: "constant"
      value: 0.2
    }
  }
}
layer {
  name: "conv2/relu_3x3"
  type: "ReLU"
  bottom: "conv2/3x3"
  top: "conv2/3x3"
}
layer {
  name: "conv2/norm2"
  type: "LRN"
  bottom: "conv2/3x3"
  top: "conv2/norm2"
  lrn_param {
    local_size: 5
    alpha: 0.0001
    beta: 0.75
  }
}
layer {
  name: "pool2/3x3_s2"
  type: "Pooling"
  bottom: "conv2/norm2"
  top: "pool2/3x3_s2"
  pooling_param {
    pool: MAX
    kernel_size: 3
    stride: 2
  }
}
layer {
  name: "inception_3a/1x1"
  type: "Convolution"
  bottom: "pool2/3x3_s2"
  top: "inception_3a/1x1"
  convolution_param {
    num_output: 64
    kernel_size: 1
    weight_filler {
      type: "xavier"
      std: 0.03
    }
    bias_filler {
      type: "constant"
      value: 0.2
    }
  }
}
layer {
  name: "inception_3a/relu_1x1"
  type: "ReLU"
  bottom: "inception_3a/1x1"
  top: "inception_3a/1x1"
}
layer {
  name: "inception_3a/3x3_reduce"
  type: "Convolution"
  bottom: "pool2/3x3_s2"
  top: "inception_3a/3x3_reduce"
  convolution_param {
    num_output: 96
    kernel_size: 1
    weight_filler {
      type: "xavier"
      std: 0.09
    }
    bias_filler {
      type: "constant"
      value: 0.2
    }
  }
}
layer {
  name: "inception_3a/relu_3x3_reduce"
  type: "ReLU"
  bottom: "inception_3a/3x3_reduce"
  top: "inception_3a/3x3_reduce"
}
layer {
  name: "inception_3a/3x3"
  type: "Convolution"
  bottom: "inception_3a/3x3_reduce"
  top: "inception_3a/3x3"
  convolution_param {
    num_output: 128
    pad: 1
    kernel_size: 3
    weight_filler {
      type: "xavier"
      std: 0.03
    }
    bias_filler {
      type: "constant"
      value: 0.2
    }
  }
}
layer {
  name: "inception_3a/relu_3x3"
  type: "ReLU"
  bottom: "inception_3a/3x3"
  top: "inception_3a/3x3"
}
layer {
  name: "inception_3a/5x5_reduce"
  type: "Convolution"
  bottom: "pool2/3x3_s2"
  top: "inception_3a/5x5_reduce"
  convolution_param {
    num_output: 16
    kernel_size: 1
    weight_filler {
      type: "xavier"
      std: 0.2
    }
    bias_filler {
      type: "constant"
      value: 0.2
    }
  }
}
layer {
  name: "inception_3a/relu_5x5_reduce"
  type: "ReLU"
  bottom: "inception_3a/5x5_reduce"
  top: "inception_3a/5x5_reduce"
}
layer {
  name: "inception_3a/5x5"
  type: "Convolution"
  bottom: "inception_3a/5x5_reduce"
  top: "inception_3a/5x5"
  convolution_param {
    num_output: 32
    pad: 2
    kernel_size: 5
    weight_filler {
      type: "xavier"
      std: 0.03
    }
    bias_filler {
      type: "constant"
      value: 0.2
    }
  }
}
layer {
  name: "inception_3a/relu_5x5"
  type: "ReLU"
  bottom: "inception_3a/5x5"
  top: "inception_3a/5x5"
}
layer {
  name: "inception_3a/pool"
  type: "Pooling"
  bottom: "pool2/3x3_s2"
  top: "inception_3a/pool"
  pooling_param {
    pool: MAX
    kernel_size: 3
    stride: 1
    pad: 1
  }
}
layer {
  name: "inception_3a/pool_proj"
  type: "Convolution"
  bottom: "inception_3a/pool"
  top: "inception_3a/pool_proj"
  convolution_param {
    num_output: 32
    kernel_size: 1
    weight_filler {
      type: "xavier"
      std: 0.1
    }
    bias_filler {
      type: "constant"
      value: 0.2
    }
  }
}
layer {
  name: "inception_3a/relu_pool_proj"
  type: "ReLU"
  bottom: "inception_3a/pool_proj"
  top: "inception_3a/pool_proj"
}
layer {
  name: "inception_3a/output"
  type: "Concat"
  bottom: "inception_3a/1x1"
  bottom: "inception_3a/3x3"
  bottom: "inception_3a/5x5"
  bottom: "inception_3a/pool_proj"
  top: "inception_3a/output"
}
layer {
  name: "inception_3b/1x1"
  type: "Convolution"
  bottom: "inception_3a/output"
  top: "inception_3b/1x1"
  convolution_param {
    num_output: 128
    kernel_size: 1
    weight_filler {
      type: "xavier"
      std: 0.03
    }
    bias_filler {
      type: "constant"
      value: 0.2
    }
  }
}
layer {
  name: "inception_3b/relu_1x1"
  type: "ReLU"
  bottom: "inception_3b/1x1"
  top: "inception_3b/1x1"
}
layer {
  name: "inception_3b/3x3_reduce"
  type: "Convolution"
  bottom: "inception_3a/output"
  top: "inception_3b/3x3_reduce"
  convolution_param {
    num_output: 128
    kernel_size: 1
    weight_filler {
      type: "xavier"
      std: 0.09
    }
    bias_filler {
      type: "constant"
      value: 0.2
    }
  }
}
layer {
  name: "inception_3b/relu_3x3_reduce"
  type: "ReLU"
  bottom: "inception_3b/3x3_reduce"
  top: "inception_3b/3x3_reduce"
}
layer {
  name: "inception_3b/3x3"
  type: "Convolution"
  bottom: "inception_3b/3x3_reduce"
  top: "inception_3b/3x3"
  convolution_param {
    num_output: 192
    pad: 1
    kernel_size: 3
    weight_filler {
      type: "xavier"
      std: 0.03
    }
    bias_filler {
      type: "constant"
      value: 0.2
    }
  }
}
layer {
  name: "inception_3b/relu_3x3"
  type: "ReLU"
  bottom: "inception_3b/3x3"
  top: "inception_3b/3x3"
}
layer {
  name: "inception_3b/5x5_reduce"
  type: "Convolution"
  bottom: "inception_3a/output"
  top: "inception_3b/5x5_reduce"
  convolution_param {
    num_output: 32
    kernel_size: 1
    weight_filler {
      type: "xavier"
      std: 0.2
    }
    bias_filler {
      type: "constant"
      value: 0.2
    }
  }
}
layer {
  name: "inception_3b/relu_5x5_reduce"
  type: "ReLU"
  bottom: "inception_3b/5x5_reduce"
  top: "inception_3b/5x5_reduce"
}
layer {
  name: "inception_3b/5x5"
  type: "Convolution"
  bottom: "inception_3b/5x5_reduce"
  top: "inception_3b/5x5"
  convolution_param {
    num_output: 96
    pad: 2
    kernel_size: 5
    weight_filler {
      type: "xavier"
      std: 0.03
    }
    bias_filler {
      type: "constant"
      value: 0.2
    }
  }
}
layer {
  name: "inception_3b/relu_5x5"
  type: "ReLU"
  bottom: "inception_3b/5x5"
  top: "inception_3b/5x5"
}
layer {
  name: "inception_3b/pool"
  type: "Pooling"
  bottom: "inception_3a/output"
  top: "inception_3b/pool"
  pooling_param {
    pool: MAX
    kernel_size: 3
    stride: 1
    pad: 1
  }
}
layer {
  name: "inception_3b/pool_proj"
  type: "Convolution"
  bottom: "inception_3b/pool"
  top: "inception_3b/pool_proj"
  convolution_param {
    num_output: 64
    kernel_size: 1
    weight_filler {
      type: "xavier"
      std: 0.1
    }
    bias_filler {
      type: "constant"
      value: 0.2
    }
  }
}
layer {
  name: "inception_3b/relu_pool_proj"
  type: "ReLU"
  bottom: "inception_3b/pool_proj"
  top: "inception_3b/pool_proj"
}
layer {
  name: "inception_3b/output"
  type: "Concat"
  bottom: "inception_3b/1x1"
  bottom: "inception_3b/3x3"
  bottom: "inception_3b/5x5"
  bottom: "inception_3b/pool_proj"
  top: "inception_3b/output"
}
layer {
  name: "pool3/3x3_s2"
  type: "Pooling"
  bottom: "inception_3b/output"
  top: "pool3/3x3_s2"
  pooling_param {
    pool: MAX
    kernel_size: 3
    stride: 2
  }
}
layer {
  name: "inception_4a/1x1"
  type: "Convolution"
  bottom: "pool3/3x3_s2"
  top: "inception_4a/1x1"
  convolution_param {
    num_output: 192
    kernel_size: 1
    weight_filler {
      type: "xavier"
      std: 0.03
    }
    bias_filler {
      type: "constant"
      value: 0.2
    }
  }
}
layer {
  name: "inception_4a/relu_1x1"
  type: "ReLU"
  bottom: "inception_4a/1x1"
  top: "inception_4a/1x1"
}
layer {
  name: "inception_4a/3x3_reduce"
  type: "Convolution"
  bottom: "pool3/3x3_s2"
  top: "inception_4a/3x3_reduce"
  convolution_param {
    num_output: 96
    kernel_size: 1
    weight_filler {
      type: "xavier"
      std: 0.09
    }
    bias_filler {
      type: "constant"
      value: 0.2
    }
  }
}
layer {
  name: "inception_4a/relu_3x3_reduce"
  type: "ReLU"
  bottom: "inception_4a/3x3_reduce"
  top: "inception_4a/3x3_reduce"
}
layer {
  name: "inception_4a/3x3"
  type: "Convolution"
  bottom: "inception_4a/3x3_reduce"
  top: "inception_4a/3x3"
  convolution_param {
    num_output: 208
    pad: 1
    kernel_size: 3
    weight_filler {
      type: "xavier"
      std: 0.03
    }
    bias_filler {
      type: "constant"
      value: 0.2
    }
  }
}
layer {
  name: "inception_4a/relu_3x3"
  type: "ReLU"
  bottom: "inception_4a/3x3"
  top: "inception_4a/3x3"
}
layer {
  name: "inception_4a/5x5_reduce"
  type: "Convolution"
  bottom: "pool3/3x3_s2"
  top: "inception_4a/5x5_reduce"
  convolution_param {
    num_output: 16
    kernel_size: 1
    weight_filler {
      type: "xavier"
      std: 0.2
    }
    bias_filler {
      type: "constant"
      value: 0.2
    }
  }
}
layer {
  name: "inception_4a/relu_5x5_reduce"
  type: "ReLU"
  bottom: "inception_4a/5x5_reduce"
  top: "inception_4a/5x5_reduce"
}
layer {
  name: "inception_4a/5x5"
  type: "Convolution"
  bottom: "inception_4a/5x5_reduce"
  top: "inception_4a/5x5"
  convolution_param {
    num_output: 48
    pad: 2
    kernel_size: 5
    weight_filler {
      type: "xavier"
      std: 0.03
    }
    bias_filler {
      type: "constant"
      value: 0.2
    }
  }
}
layer {
  name: "inception_4a/relu_5x5"
  type: "ReLU"
  bottom: "inception_4a/5x5"
  top: "inception_4a/5x5"
}
layer {
  name: "inception_4a/pool"
  type: "Pooling"
  bottom: "pool3/3x3_s2"
  top: "inception_4a/pool"
  pooling_param {
    pool: MAX
    kernel_size: 3
    stride: 1
    pad: 1
  }
}
layer {
  name: "inception_4a/pool_proj"
  type: "Convolution"
  bottom: "inception_4a/pool"
  top: "inception_4a/pool_proj"
  convolution_param {
    num_output: 64
    kernel_size: 1
    weight_filler {
      type: "xavier"
      std: 0.1
    }
    bias_filler {
      type: "constant"
      value: 0.2
    }
  }
}
layer {
  name: "inception_4a/relu_pool_proj"
  type: "ReLU"
  bottom: "inception_4a/pool_proj"
  top: "inception_4a/pool_proj"
}
layer {
  name: "inception_4a/output"
  type: "Concat"
  bottom: "inception_4a/1x1"
  bottom: "inception_4a/3x3"
  bottom: "inception_4a/5x5"
  bottom: "inception_4a/pool_proj"
  top: "inception_4a/output"
}
layer {
  name: "inception_4b/1x1"
  type: "Convolution"
  bottom: "inception_4a/output"
  top: "inception_4b/1x1"
  convolution_param {
    num_output: 160
    kernel_size: 1
    weight_filler {
      type: "xavier"
      std: 0.03
    }
    bias_filler {
      type: "constant"
      value: 0.2
    }
  }
}
layer {
  name: "inception_4b/relu_1x1"
  type: "ReLU"
  bottom: "inception_4b/1x1"
  top: "inception_4b/1x1"
}
layer {
  name: "inception_4b/3x3_reduce"
  type: "Convolution"
  bottom: "inception_4a/output"
  top: "inception_4b/3x3_reduce"
  convolution_param {
    num_output: 112
    kernel_size: 1
    weight_filler {
      type: "xavier"
      std: 0.09
    }
    bias_filler {
      type: "constant"
      value: 0.2
    }
  }
}
layer {
  name: "inception_4b/relu_3x3_reduce"
  type: "ReLU"
  bottom: "inception_4b/3x3_reduce"
  top: "inception_4b/3x3_reduce"
}
layer {
  name: "inception_4b/3x3"
  type: "Convolution"
  bottom: "inception_4b/3x3_reduce"
  top: "inception_4b/3x3"
  convolution_param {
    num_output: 224
    pad: 1
    kernel_size: 3
    weight_filler {
      type: "xavier"
      std: 0.03
    }
    bias_filler {
      type: "constant"
      value: 0.2
    }
  }
}
layer {
  name: "inception_4b/relu_3x3"
  type: "ReLU"
  bottom: "inception_4b/3x3"
  top: "inception_4b/3x3"
}
layer {
  name: "inception_4b/5x5_reduce"
  type: "Convolution"
  bottom: "inception_4a/output"
  top: "inception_4b/5x5_reduce"
  convolution_param {
    num_output: 24
    kernel_size: 1
    weight_filler {
      type: "xavier"
      std: 0.2
    }
    bias_filler {
      type: "constant"
      value: 0.2
    }
  }
}
layer {
  name: "inception_4b/relu_5x5_reduce"
  type: "ReLU"
  bottom: "inception_4b/5x5_reduce"
  top: "inception_4b/5x5_reduce"
}
layer {
  name: "inception_4b/5x5"
  type: "Convolution"
  bottom: "inception_4b/5x5_reduce"
  top: "inception_4b/5x5"
  convolution_param {
    num_output: 64
    pad: 2
    kernel_size: 5
    weight_filler {
      type: "xavier"
      std: 0.03
    }
    bias_filler {
      type: "constant"
      value: 0.2
    }
  }
}
layer {
  name: "inception_4b/relu_5x5"
  type: "ReLU"
  bottom: "inception_4b/5x5"
  top: "inception_4b/5x5"
}
layer {
  name: "inception_4b/pool"
  type: "Pooling"
  bottom: "inception_4a/output"
  top: "inception_4b/pool"
  pooling_param {
    pool: MAX
    kernel_size: 3
    stride: 1
    pad: 1
  }
}
layer {
  name: "inception_4b/pool_proj"
  type: "Convolution"
  bottom: "inception_4b/pool"
  top: "inception_4b/pool_proj"
  convolution_param {
    num_output: 64
    kernel_size: 1
    weight_filler {
      type: "xavier"
      std: 0.1
    }
    bias_filler {
      type: "constant"
      value: 0.2
    }
  }
}
layer {
  name: "inception_4b/relu_pool_proj"
  type: "ReLU"
  bottom: "inception_4b/pool_proj"
  top: "inception_4b/pool_proj"
}
layer {
  name: "inception_4b/output"
  type: "Concat"
  bottom: "inception_4b/1x1"
  bottom: "inception_4b/3x3"
  bottom: "inception_4b/5x5"
  bottom: "inception_4b/pool_proj"
  top: "inception_4b/output"
}
layer {
  name: "inception_4c/1x1"
  type: "Convolution"
  bottom: "inception_4b/output"
  top: "inception_4c/1x1"
  convolution_param {
    num_output: 128
    kernel_size: 1
    weight_filler {
      type: "xavier"
      std: 0.03
    }
    bias_filler {
      type: "constant"
      value: 0.2
    }
  }
}
layer {
  name: "inception_4c/relu_1x1"
  type: "ReLU"
  bottom: "inception_4c/1x1"
  top: "inception_4c/1x1"
}
layer {
  name: "inception_4c/3x3_reduce"
  type: "Convolution"
  bottom: "inception_4b/output"
  top: "inception_4c/3x3_reduce"
  convolution_param {
    num_output: 128
    kernel_size: 1
    weight_filler {
      type: "xavier"
      std: 0.09
    }
    bias_filler {
      type: "constant"
      value: 0.2
    }
  }
}
layer {
  name: "inception_4c/relu_3x3_reduce"
  type: "ReLU"
  bottom: "inception_4c/3x3_reduce"
  top: "inception_4c/3x3_reduce"
}
layer {
  name: "inception_4c/3x3"
  type: "Convolution"
  bottom: "inception_4c/3x3_reduce"
  top: "inception_4c/3x3"
  convolution_param {
    num_output: 256
    pad: 1
    kernel_size: 3
    weight_filler {
      type: "xavier"
      std: 0.03
    }
    bias_filler {
      type: "constant"
      value: 0.2
    }
  }
}
layer {
  name: "inception_4c/relu_3x3"
  type: "ReLU"
  bottom: "inception_4c/3x3"
  top: "inception_4c/3x3"
}
layer {
  name: "inception_4c/5x5_reduce"
  type: "Convolution"
  bottom: "inception_4b/output"
  top: "inception_4c/5x5_reduce"
  convolution_param {
    num_output: 24
    kernel_size: 1
    weight_filler {
      type: "xavier"
      std: 0.2
    }
    bias_filler {
      type: "constant"
      value: 0.2
    }
  }
}
layer {
  name: "inception_4c/relu_5x5_reduce"
  type: "ReLU"
  bottom: "inception_4c/5x5_reduce"
  top: "inception_4c/5x5_reduce"
}
layer {
  name: "inception_4c/5x5"
  type: "Convolution"
  bottom: "inception_4c/5x5_reduce"
  top: "inception_4c/5x5"
  convolution_param {
    num_output: 64
    pad: 2
    kernel_size: 5
    weight_filler {
      type: "xavier"
      std: 0.03
    }
    bias_filler {
      type: "constant"
      value: 0.2
    }
  }
}
layer {
  name: "inception_4c/relu_5x5"
  type: "ReLU"
  bottom: "inception_4c/5x5"
  top: "inception_4c/5x5"
}
layer {
  name: "inception_4c/pool"
  type: "Pooling"
  bottom: "inception_4b/output"
  top: "inception_4c/pool"
  pooling_param {
    pool: MAX
    kernel_size: 3
    stride: 1
    pad: 1
  }
}
layer {
  name: "inception_4c/pool_proj"
  type: "Convolution"
  bottom: "inception_4c/pool"
  top: "inception_4c/pool_proj"
  convolution_param {
    num_output: 64
    kernel_size: 1
    weight_filler {
      type: "xavier"
      std: 0.1
    }
    bias_filler {
      type: "constant"
      value: 0.2
    }
  }
}
layer {
  name: "inception_4c/relu_pool_proj"
  type: "ReLU"
  bottom: "inception_4c/pool_proj"
  top: "inception_4c/pool_proj"
}
layer {
  name: "inception_4c/output"
  type: "Concat"
  bottom: "inception_4c/1x1"
  bottom: "inception_4c/3x3"
  bottom: "inception_4c/5x5"
  bottom: "inception_4c/pool_proj"
  top: "inception_4c/output"
}
layer {
  name: "inception_4d/1x1"
  type: "Convolution"
  bottom: "inception_4c/output"
  top: "inception_4d/1x1"
  convolution_param {
    num_output: 112
    kernel_size: 1
    weight_filler {
      type: "xavier"
      std: 0.03
    }
    bias_filler {
      type: "constant"
      value: 0.2
    }
  }
}
layer {
  name: "inception_4d/relu_1x1"
  type: "ReLU"
  bottom: "inception_4d/1x1"
  top: "inception_4d/1x1"
}
layer {
  name: "inception_4d/3x3_reduce"
  type: "Convolution"
  bottom: "inception_4c/output"
  top: "inception_4d/3x3_reduce"
  convolution_param {
    num_output: 144
    kernel_size: 1
    weight_filler {
      type: "xavier"
      std: 0.09
    }
    bias_filler {
      type: "constant"
      value: 0.2
    }
  }
}
layer {
  name: "inception_4d/relu_3x3_reduce"
  type: "ReLU"
  bottom: "inception_4d/3x3_reduce"
  top: "inception_4d/3x3_reduce"
}
layer {
  name: "inception_4d/3x3"
  type: "Convolution"
  bottom: "inception_4d/3x3_reduce"
  top: "inception_4d/3x3"
  convolution_param {
    num_output: 288
    pad: 1
    kernel_size: 3
    weight_filler {
      type: "xavier"
      std: 0.03
    }
    bias_filler {
      type: "constant"
      value: 0.2
    }
  }
}
layer {
  name: "inception_4d/relu_3x3"
  type: "ReLU"
  bottom: "inception_4d/3x3"
  top: "inception_4d/3x3"
}
layer {
  name: "inception_4d/5x5_reduce"
  type: "Convolution"
  bottom: "inception_4c/output"
  top: "inception_4d/5x5_reduce"
  convolution_param {
    num_output: 32
    kernel_size: 1
    weight_filler {
      type: "xavier"
      std: 0.2
    }
    bias_filler {
      type: "constant"
      value: 0.2
    }
  }
}
layer {
  name: "inception_4d/relu_5x5_reduce"
  type: "ReLU"
  bottom: "inception_4d/5x5_reduce"
  top: "inception_4d/5x5_reduce"
}
layer {
  name: "inception_4d/5x5"
  type: "Convolution"
  bottom: "inception_4d/5x5_reduce"
  top: "inception_4d/5x5"
  convolution_param {
    num_output: 64
    pad: 2
    kernel_size: 5
    weight_filler {
      type: "xavier"
      std: 0.03
    }
    bias_filler {
      type: "constant"
      value: 0.2
    }
  }
}
layer {
  name: "inception_4d/relu_5x5"
  type: "ReLU"
  bottom: "inception_4d/5x5"
  top: "inception_4d/5x5"
}
layer {
  name: "inception_4d/pool"
  type: "Pooling"
  bottom: "inception_4c/output"
  top: "inception_4d/pool"
  pooling_param {
    pool: MAX
    kernel_size: 3
    stride: 1
    pad: 1
  }
}
layer {
  name: "inception_4d/pool_proj"
  type: "Convolution"
  bottom: "inception_4d/pool"
  top: "inception_4d/pool_proj"
  convolution_param {
    num_output: 64
    kernel_size: 1
    weight_filler {
      type: "xavier"
      std: 0.1
    }
    bias_filler {
      type: "constant"
      value: 0.2
    }
  }
}
layer {
  name: "inception_4d/relu_pool_proj"
  type: "ReLU"
  bottom: "inception_4d/pool_proj"
  top: "inception_4d/pool_proj"
}
layer {
  name: "inception_4d/output"
  type: "Concat"
  bottom: "inception_4d/1x1"
  bottom: "inception_4d/3x3"
  bottom: "inception_4d/5x5"
  bottom: "inception_4d/pool_proj"
  top: "inception_4d/output"
}
layer {
  name: "loss2/ave_pool"
  type: "Pooling"
  bottom: "inception_4d/output"
  top: "loss2/ave_pool"
  pooling_param {
    pool: AVE
    kernel_size: 5
    stride: 3
  }
}
layer {
  name: "loss2/conv"
  type: "Convolution"
  bottom: "loss2/ave_pool"
  top: "loss2/conv"
  convolution_param {
    num_output: 128
    kernel_size: 1
    weight_filler {
      type: "xavier"
      std: 0.08
    }
    bias_filler {
      type: "constant"
      value: 0.2
    }
  }
}
layer {
  name: "loss2/relu_conv"
  type: "ReLU"
  bottom: "loss2/conv"
  top: "loss2/conv"
}
layer {
  name: "loss2/fc"
  type: "InnerProduct"
  bottom: "loss2/conv"
  top: "loss2/fc"
  inner_product_param {
    num_output: 1024
    weight_filler {
      type: "xavier"
      std: 0.02
    }
    bias_filler {
      type: "constant"
      value: 0.2
    }
  }
}
layer {
  name: "loss2/relu_fc"
  type: "ReLU"
  bottom: "loss2/fc"
  top: "loss2/fc"
}
layer {
  name: "loss2/drop_fc"
  type: "Dropout"
  bottom: "loss2/fc"
  top: "loss2/fc"
  dropout_param {
    dropout_ratio: 0.7
  }
}
layer {
  name: "loss2/classifier"
  type: "InnerProduct"
  bottom: "loss2/fc"
  top: "loss2/classifier"
  inner_product_param {
    num_output: 1901
    weight_filler {
      type: "xavier"
    }
    bias_filler {
      type: "constant"
      value: 0
    }
  }
}
layer {
  name: "accuracy"
  type: "Accuracy"
  bottom: "loss2/classifier"
  bottom: "label"
  top: "accuracy"
  include {
    phase: TEST
  }
}
layer {
  name: "loss"
  type: "SoftmaxWithLoss"
  bottom: "loss2/classifier"
  bottom: "label"
  top: "loss"
}
I0223 11:39:06.208853  6396 layer_factory.hpp:77] Creating layer data
I0223 11:39:06.208917  6396 net.cpp:100] Creating Layer data
I0223 11:39:06.208922  6396 net.cpp:408] data -> data
I0223 11:39:06.208930  6396 net.cpp:408] data -> label
I0223 11:39:06.208935  6396 data_transformer.cpp:27] Loading mean file from: mean.binaryproto
I0223 11:39:06.217365  6414 db_lmdb.cpp:35] Opened lmdb img_test_lmdb
I0223 11:39:06.238476  6396 data_layer.cpp:41] output data size: 50,3,227,227
I0223 11:39:06.277648  6396 net.cpp:150] Setting up data
I0223 11:39:06.277681  6396 net.cpp:157] Top shape: 50 3 227 227 (7729350)
I0223 11:39:06.277685  6396 net.cpp:157] Top shape: 50 (50)
I0223 11:39:06.277688  6396 net.cpp:165] Memory required for data: 30917600
I0223 11:39:06.277693  6396 layer_factory.hpp:77] Creating layer label_data_1_split
I0223 11:39:06.277700  6396 net.cpp:100] Creating Layer label_data_1_split
I0223 11:39:06.277704  6396 net.cpp:434] label_data_1_split <- label
I0223 11:39:06.277709  6396 net.cpp:408] label_data_1_split -> label_data_1_split_0
I0223 11:39:06.277716  6396 net.cpp:408] label_data_1_split -> label_data_1_split_1
I0223 11:39:06.277770  6396 net.cpp:150] Setting up label_data_1_split
I0223 11:39:06.277773  6396 net.cpp:157] Top shape: 50 (50)
I0223 11:39:06.277776  6396 net.cpp:157] Top shape: 50 (50)
I0223 11:39:06.277778  6396 net.cpp:165] Memory required for data: 30918000
I0223 11:39:06.277781  6396 layer_factory.hpp:77] Creating layer conv1/7x7_s2
I0223 11:39:06.277789  6396 net.cpp:100] Creating Layer conv1/7x7_s2
I0223 11:39:06.277792  6396 net.cpp:434] conv1/7x7_s2 <- data
I0223 11:39:06.277796  6396 net.cpp:408] conv1/7x7_s2 -> conv1/7x7_s2
I0223 11:39:06.281942  6396 net.cpp:150] Setting up conv1/7x7_s2
I0223 11:39:06.281958  6396 net.cpp:157] Top shape: 50 64 114 114 (41587200)
I0223 11:39:06.281961  6396 net.cpp:165] Memory required for data: 197266800
I0223 11:39:06.281972  6396 layer_factory.hpp:77] Creating layer conv1/relu_7x7
I0223 11:39:06.281977  6396 net.cpp:100] Creating Layer conv1/relu_7x7
I0223 11:39:06.281980  6396 net.cpp:434] conv1/relu_7x7 <- conv1/7x7_s2
I0223 11:39:06.281999  6396 net.cpp:395] conv1/relu_7x7 -> conv1/7x7_s2 (in-place)
I0223 11:39:06.282142  6396 net.cpp:150] Setting up conv1/relu_7x7
I0223 11:39:06.282148  6396 net.cpp:157] Top shape: 50 64 114 114 (41587200)
I0223 11:39:06.282151  6396 net.cpp:165] Memory required for data: 363615600
I0223 11:39:06.282153  6396 layer_factory.hpp:77] Creating layer pool1/3x3_s2
I0223 11:39:06.282160  6396 net.cpp:100] Creating Layer pool1/3x3_s2
I0223 11:39:06.282161  6396 net.cpp:434] pool1/3x3_s2 <- conv1/7x7_s2
I0223 11:39:06.282179  6396 net.cpp:408] pool1/3x3_s2 -> pool1/3x3_s2
I0223 11:39:06.282228  6396 net.cpp:150] Setting up pool1/3x3_s2
I0223 11:39:06.282232  6396 net.cpp:157] Top shape: 50 64 57 57 (10396800)
I0223 11:39:06.282234  6396 net.cpp:165] Memory required for data: 405202800
I0223 11:39:06.282246  6396 layer_factory.hpp:77] Creating layer pool1/norm1
I0223 11:39:06.282251  6396 net.cpp:100] Creating Layer pool1/norm1
I0223 11:39:06.282253  6396 net.cpp:434] pool1/norm1 <- pool1/3x3_s2
I0223 11:39:06.282256  6396 net.cpp:408] pool1/norm1 -> pool1/norm1
I0223 11:39:06.282403  6396 net.cpp:150] Setting up pool1/norm1
I0223 11:39:06.282409  6396 net.cpp:157] Top shape: 50 64 57 57 (10396800)
I0223 11:39:06.282411  6396 net.cpp:165] Memory required for data: 446790000
I0223 11:39:06.282413  6396 layer_factory.hpp:77] Creating layer conv2/3x3_reduce
I0223 11:39:06.282419  6396 net.cpp:100] Creating Layer conv2/3x3_reduce
I0223 11:39:06.282421  6396 net.cpp:434] conv2/3x3_reduce <- pool1/norm1
I0223 11:39:06.282425  6396 net.cpp:408] conv2/3x3_reduce -> conv2/3x3_reduce
I0223 11:39:06.283383  6396 net.cpp:150] Setting up conv2/3x3_reduce
I0223 11:39:06.283391  6396 net.cpp:157] Top shape: 50 64 57 57 (10396800)
I0223 11:39:06.283394  6396 net.cpp:165] Memory required for data: 488377200
I0223 11:39:06.283401  6396 layer_factory.hpp:77] Creating layer conv2/relu_3x3_reduce
I0223 11:39:06.283404  6396 net.cpp:100] Creating Layer conv2/relu_3x3_reduce
I0223 11:39:06.283407  6396 net.cpp:434] conv2/relu_3x3_reduce <- conv2/3x3_reduce
I0223 11:39:06.283411  6396 net.cpp:395] conv2/relu_3x3_reduce -> conv2/3x3_reduce (in-place)
I0223 11:39:06.283802  6396 net.cpp:150] Setting up conv2/relu_3x3_reduce
I0223 11:39:06.283809  6396 net.cpp:157] Top shape: 50 64 57 57 (10396800)
I0223 11:39:06.283812  6396 net.cpp:165] Memory required for data: 529964400
I0223 11:39:06.283814  6396 layer_factory.hpp:77] Creating layer conv2/3x3
I0223 11:39:06.283820  6396 net.cpp:100] Creating Layer conv2/3x3
I0223 11:39:06.283823  6396 net.cpp:434] conv2/3x3 <- conv2/3x3_reduce
I0223 11:39:06.283826  6396 net.cpp:408] conv2/3x3 -> conv2/3x3
I0223 11:39:06.285662  6396 net.cpp:150] Setting up conv2/3x3
I0223 11:39:06.285670  6396 net.cpp:157] Top shape: 50 192 57 57 (31190400)
I0223 11:39:06.285673  6396 net.cpp:165] Memory required for data: 654726000
I0223 11:39:06.285679  6396 layer_factory.hpp:77] Creating layer conv2/relu_3x3
I0223 11:39:06.285683  6396 net.cpp:100] Creating Layer conv2/relu_3x3
I0223 11:39:06.285686  6396 net.cpp:434] conv2/relu_3x3 <- conv2/3x3
I0223 11:39:06.285689  6396 net.cpp:395] conv2/relu_3x3 -> conv2/3x3 (in-place)
I0223 11:39:06.285818  6396 net.cpp:150] Setting up conv2/relu_3x3
I0223 11:39:06.285823  6396 net.cpp:157] Top shape: 50 192 57 57 (31190400)
I0223 11:39:06.285826  6396 net.cpp:165] Memory required for data: 779487600
I0223 11:39:06.285828  6396 layer_factory.hpp:77] Creating layer conv2/norm2
I0223 11:39:06.285832  6396 net.cpp:100] Creating Layer conv2/norm2
I0223 11:39:06.285835  6396 net.cpp:434] conv2/norm2 <- conv2/3x3
I0223 11:39:06.285837  6396 net.cpp:408] conv2/norm2 -> conv2/norm2
I0223 11:39:06.285986  6396 net.cpp:150] Setting up conv2/norm2
I0223 11:39:06.285992  6396 net.cpp:157] Top shape: 50 192 57 57 (31190400)
I0223 11:39:06.285995  6396 net.cpp:165] Memory required for data: 904249200
I0223 11:39:06.285996  6396 layer_factory.hpp:77] Creating layer pool2/3x3_s2
I0223 11:39:06.286000  6396 net.cpp:100] Creating Layer pool2/3x3_s2
I0223 11:39:06.286002  6396 net.cpp:434] pool2/3x3_s2 <- conv2/norm2
I0223 11:39:06.286005  6396 net.cpp:408] pool2/3x3_s2 -> pool2/3x3_s2
I0223 11:39:06.286033  6396 net.cpp:150] Setting up pool2/3x3_s2
I0223 11:39:06.286037  6396 net.cpp:157] Top shape: 50 192 28 28 (7526400)
I0223 11:39:06.286039  6396 net.cpp:165] Memory required for data: 934354800
I0223 11:39:06.286041  6396 layer_factory.hpp:77] Creating layer pool2/3x3_s2_pool2/3x3_s2_0_split
I0223 11:39:06.286046  6396 net.cpp:100] Creating Layer pool2/3x3_s2_pool2/3x3_s2_0_split
I0223 11:39:06.286047  6396 net.cpp:434] pool2/3x3_s2_pool2/3x3_s2_0_split <- pool2/3x3_s2
I0223 11:39:06.286051  6396 net.cpp:408] pool2/3x3_s2_pool2/3x3_s2_0_split -> pool2/3x3_s2_pool2/3x3_s2_0_split_0
I0223 11:39:06.286054  6396 net.cpp:408] pool2/3x3_s2_pool2/3x3_s2_0_split -> pool2/3x3_s2_pool2/3x3_s2_0_split_1
I0223 11:39:06.286067  6396 net.cpp:408] pool2/3x3_s2_pool2/3x3_s2_0_split -> pool2/3x3_s2_pool2/3x3_s2_0_split_2
I0223 11:39:06.286072  6396 net.cpp:408] pool2/3x3_s2_pool2/3x3_s2_0_split -> pool2/3x3_s2_pool2/3x3_s2_0_split_3
I0223 11:39:06.286116  6396 net.cpp:150] Setting up pool2/3x3_s2_pool2/3x3_s2_0_split
I0223 11:39:06.286119  6396 net.cpp:157] Top shape: 50 192 28 28 (7526400)
I0223 11:39:06.286123  6396 net.cpp:157] Top shape: 50 192 28 28 (7526400)
I0223 11:39:06.286125  6396 net.cpp:157] Top shape: 50 192 28 28 (7526400)
I0223 11:39:06.286128  6396 net.cpp:157] Top shape: 50 192 28 28 (7526400)
I0223 11:39:06.286129  6396 net.cpp:165] Memory required for data: 1054777200
I0223 11:39:06.286131  6396 layer_factory.hpp:77] Creating layer inception_3a/1x1
I0223 11:39:06.286136  6396 net.cpp:100] Creating Layer inception_3a/1x1
I0223 11:39:06.286139  6396 net.cpp:434] inception_3a/1x1 <- pool2/3x3_s2_pool2/3x3_s2_0_split_0
I0223 11:39:06.286142  6396 net.cpp:408] inception_3a/1x1 -> inception_3a/1x1
I0223 11:39:06.287065  6396 net.cpp:150] Setting up inception_3a/1x1
I0223 11:39:06.287075  6396 net.cpp:157] Top shape: 50 64 28 28 (2508800)
I0223 11:39:06.287076  6396 net.cpp:165] Memory required for data: 1064812400
I0223 11:39:06.287081  6396 layer_factory.hpp:77] Creating layer inception_3a/relu_1x1
I0223 11:39:06.287086  6396 net.cpp:100] Creating Layer inception_3a/relu_1x1
I0223 11:39:06.287087  6396 net.cpp:434] inception_3a/relu_1x1 <- inception_3a/1x1
I0223 11:39:06.287091  6396 net.cpp:395] inception_3a/relu_1x1 -> inception_3a/1x1 (in-place)
I0223 11:39:06.287467  6396 net.cpp:150] Setting up inception_3a/relu_1x1
I0223 11:39:06.287474  6396 net.cpp:157] Top shape: 50 64 28 28 (2508800)
I0223 11:39:06.287477  6396 net.cpp:165] Memory required for data: 1074847600
I0223 11:39:06.287478  6396 layer_factory.hpp:77] Creating layer inception_3a/3x3_reduce
I0223 11:39:06.287484  6396 net.cpp:100] Creating Layer inception_3a/3x3_reduce
I0223 11:39:06.287487  6396 net.cpp:434] inception_3a/3x3_reduce <- pool2/3x3_s2_pool2/3x3_s2_0_split_1
I0223 11:39:06.287490  6396 net.cpp:408] inception_3a/3x3_reduce -> inception_3a/3x3_reduce
I0223 11:39:06.288514  6396 net.cpp:150] Setting up inception_3a/3x3_reduce
I0223 11:39:06.288543  6396 net.cpp:157] Top shape: 50 96 28 28 (3763200)
I0223 11:39:06.288545  6396 net.cpp:165] Memory required for data: 1089900400
I0223 11:39:06.288552  6396 layer_factory.hpp:77] Creating layer inception_3a/relu_3x3_reduce
I0223 11:39:06.288558  6396 net.cpp:100] Creating Layer inception_3a/relu_3x3_reduce
I0223 11:39:06.288559  6396 net.cpp:434] inception_3a/relu_3x3_reduce <- inception_3a/3x3_reduce
I0223 11:39:06.288576  6396 net.cpp:395] inception_3a/relu_3x3_reduce -> inception_3a/3x3_reduce (in-place)
I0223 11:39:06.288703  6396 net.cpp:150] Setting up inception_3a/relu_3x3_reduce
I0223 11:39:06.288709  6396 net.cpp:157] Top shape: 50 96 28 28 (3763200)
I0223 11:39:06.288712  6396 net.cpp:165] Memory required for data: 1104953200
I0223 11:39:06.288713  6396 layer_factory.hpp:77] Creating layer inception_3a/3x3
I0223 11:39:06.288718  6396 net.cpp:100] Creating Layer inception_3a/3x3
I0223 11:39:06.288722  6396 net.cpp:434] inception_3a/3x3 <- inception_3a/3x3_reduce
I0223 11:39:06.288725  6396 net.cpp:408] inception_3a/3x3 -> inception_3a/3x3
I0223 11:39:06.290951  6396 net.cpp:150] Setting up inception_3a/3x3
I0223 11:39:06.290982  6396 net.cpp:157] Top shape: 50 128 28 28 (5017600)
I0223 11:39:06.290985  6396 net.cpp:165] Memory required for data: 1125023600
I0223 11:39:06.291007  6396 layer_factory.hpp:77] Creating layer inception_3a/relu_3x3
I0223 11:39:06.291013  6396 net.cpp:100] Creating Layer inception_3a/relu_3x3
I0223 11:39:06.291016  6396 net.cpp:434] inception_3a/relu_3x3 <- inception_3a/3x3
I0223 11:39:06.291023  6396 net.cpp:395] inception_3a/relu_3x3 -> inception_3a/3x3 (in-place)
I0223 11:39:06.291211  6396 net.cpp:150] Setting up inception_3a/relu_3x3
I0223 11:39:06.291218  6396 net.cpp:157] Top shape: 50 128 28 28 (5017600)
I0223 11:39:06.291234  6396 net.cpp:165] Memory required for data: 1145094000
I0223 11:39:06.291236  6396 layer_factory.hpp:77] Creating layer inception_3a/5x5_reduce
I0223 11:39:06.291244  6396 net.cpp:100] Creating Layer inception_3a/5x5_reduce
I0223 11:39:06.291246  6396 net.cpp:434] inception_3a/5x5_reduce <- pool2/3x3_s2_pool2/3x3_s2_0_split_2
I0223 11:39:06.291251  6396 net.cpp:408] inception_3a/5x5_reduce -> inception_3a/5x5_reduce
I0223 11:39:06.292191  6396 net.cpp:150] Setting up inception_3a/5x5_reduce
I0223 11:39:06.292199  6396 net.cpp:157] Top shape: 50 16 28 28 (627200)
I0223 11:39:06.292202  6396 net.cpp:165] Memory required for data: 1147602800
I0223 11:39:06.292207  6396 layer_factory.hpp:77] Creating layer inception_3a/relu_5x5_reduce
I0223 11:39:06.292212  6396 net.cpp:100] Creating Layer inception_3a/relu_5x5_reduce
I0223 11:39:06.292214  6396 net.cpp:434] inception_3a/relu_5x5_reduce <- inception_3a/5x5_reduce
I0223 11:39:06.292217  6396 net.cpp:395] inception_3a/relu_5x5_reduce -> inception_3a/5x5_reduce (in-place)
I0223 11:39:06.292611  6396 net.cpp:150] Setting up inception_3a/relu_5x5_reduce
I0223 11:39:06.292619  6396 net.cpp:157] Top shape: 50 16 28 28 (627200)
I0223 11:39:06.292621  6396 net.cpp:165] Memory required for data: 1150111600
I0223 11:39:06.292624  6396 layer_factory.hpp:77] Creating layer inception_3a/5x5
I0223 11:39:06.292630  6396 net.cpp:100] Creating Layer inception_3a/5x5
I0223 11:39:06.292632  6396 net.cpp:434] inception_3a/5x5 <- inception_3a/5x5_reduce
I0223 11:39:06.292636  6396 net.cpp:408] inception_3a/5x5 -> inception_3a/5x5
I0223 11:39:06.293555  6396 net.cpp:150] Setting up inception_3a/5x5
I0223 11:39:06.293565  6396 net.cpp:157] Top shape: 50 32 28 28 (1254400)
I0223 11:39:06.293566  6396 net.cpp:165] Memory required for data: 1155129200
I0223 11:39:06.293571  6396 layer_factory.hpp:77] Creating layer inception_3a/relu_5x5
I0223 11:39:06.293576  6396 net.cpp:100] Creating Layer inception_3a/relu_5x5
I0223 11:39:06.293578  6396 net.cpp:434] inception_3a/relu_5x5 <- inception_3a/5x5
I0223 11:39:06.293581  6396 net.cpp:395] inception_3a/relu_5x5 -> inception_3a/5x5 (in-place)
I0223 11:39:06.293709  6396 net.cpp:150] Setting up inception_3a/relu_5x5
I0223 11:39:06.293714  6396 net.cpp:157] Top shape: 50 32 28 28 (1254400)
I0223 11:39:06.293716  6396 net.cpp:165] Memory required for data: 1160146800
I0223 11:39:06.293720  6396 layer_factory.hpp:77] Creating layer inception_3a/pool
I0223 11:39:06.293723  6396 net.cpp:100] Creating Layer inception_3a/pool
I0223 11:39:06.293726  6396 net.cpp:434] inception_3a/pool <- pool2/3x3_s2_pool2/3x3_s2_0_split_3
I0223 11:39:06.293730  6396 net.cpp:408] inception_3a/pool -> inception_3a/pool
I0223 11:39:06.293763  6396 net.cpp:150] Setting up inception_3a/pool
I0223 11:39:06.293766  6396 net.cpp:157] Top shape: 50 192 28 28 (7526400)
I0223 11:39:06.293769  6396 net.cpp:165] Memory required for data: 1190252400
I0223 11:39:06.293771  6396 layer_factory.hpp:77] Creating layer inception_3a/pool_proj
I0223 11:39:06.293776  6396 net.cpp:100] Creating Layer inception_3a/pool_proj
I0223 11:39:06.293778  6396 net.cpp:434] inception_3a/pool_proj <- inception_3a/pool
I0223 11:39:06.293782  6396 net.cpp:408] inception_3a/pool_proj -> inception_3a/pool_proj
I0223 11:39:06.294739  6396 net.cpp:150] Setting up inception_3a/pool_proj
I0223 11:39:06.294746  6396 net.cpp:157] Top shape: 50 32 28 28 (1254400)
I0223 11:39:06.294751  6396 net.cpp:165] Memory required for data: 1195270000
I0223 11:39:06.294759  6396 layer_factory.hpp:77] Creating layer inception_3a/relu_pool_proj
I0223 11:39:06.294764  6396 net.cpp:100] Creating Layer inception_3a/relu_pool_proj
I0223 11:39:06.294767  6396 net.cpp:434] inception_3a/relu_pool_proj <- inception_3a/pool_proj
I0223 11:39:06.294771  6396 net.cpp:395] inception_3a/relu_pool_proj -> inception_3a/pool_proj (in-place)
I0223 11:39:06.294908  6396 net.cpp:150] Setting up inception_3a/relu_pool_proj
I0223 11:39:06.294912  6396 net.cpp:157] Top shape: 50 32 28 28 (1254400)
I0223 11:39:06.294914  6396 net.cpp:165] Memory required for data: 1200287600
I0223 11:39:06.294925  6396 layer_factory.hpp:77] Creating layer inception_3a/output
I0223 11:39:06.294929  6396 net.cpp:100] Creating Layer inception_3a/output
I0223 11:39:06.294932  6396 net.cpp:434] inception_3a/output <- inception_3a/1x1
I0223 11:39:06.294935  6396 net.cpp:434] inception_3a/output <- inception_3a/3x3
I0223 11:39:06.294939  6396 net.cpp:434] inception_3a/output <- inception_3a/5x5
I0223 11:39:06.294940  6396 net.cpp:434] inception_3a/output <- inception_3a/pool_proj
I0223 11:39:06.294945  6396 net.cpp:408] inception_3a/output -> inception_3a/output
I0223 11:39:06.294966  6396 net.cpp:150] Setting up inception_3a/output
I0223 11:39:06.294971  6396 net.cpp:157] Top shape: 50 256 28 28 (10035200)
I0223 11:39:06.294973  6396 net.cpp:165] Memory required for data: 1240428400
I0223 11:39:06.294976  6396 layer_factory.hpp:77] Creating layer inception_3a/output_inception_3a/output_0_split
I0223 11:39:06.294980  6396 net.cpp:100] Creating Layer inception_3a/output_inception_3a/output_0_split
I0223 11:39:06.294982  6396 net.cpp:434] inception_3a/output_inception_3a/output_0_split <- inception_3a/output
I0223 11:39:06.294986  6396 net.cpp:408] inception_3a/output_inception_3a/output_0_split -> inception_3a/output_inception_3a/output_0_split_0
I0223 11:39:06.294989  6396 net.cpp:408] inception_3a/output_inception_3a/output_0_split -> inception_3a/output_inception_3a/output_0_split_1
I0223 11:39:06.294993  6396 net.cpp:408] inception_3a/output_inception_3a/output_0_split -> inception_3a/output_inception_3a/output_0_split_2
I0223 11:39:06.294997  6396 net.cpp:408] inception_3a/output_inception_3a/output_0_split -> inception_3a/output_inception_3a/output_0_split_3
I0223 11:39:06.295048  6396 net.cpp:150] Setting up inception_3a/output_inception_3a/output_0_split
I0223 11:39:06.295053  6396 net.cpp:157] Top shape: 50 256 28 28 (10035200)
I0223 11:39:06.295055  6396 net.cpp:157] Top shape: 50 256 28 28 (10035200)
I0223 11:39:06.295058  6396 net.cpp:157] Top shape: 50 256 28 28 (10035200)
I0223 11:39:06.295060  6396 net.cpp:157] Top shape: 50 256 28 28 (10035200)
I0223 11:39:06.295063  6396 net.cpp:165] Memory required for data: 1400991600
I0223 11:39:06.295064  6396 layer_factory.hpp:77] Creating layer inception_3b/1x1
I0223 11:39:06.295070  6396 net.cpp:100] Creating Layer inception_3b/1x1
I0223 11:39:06.295073  6396 net.cpp:434] inception_3b/1x1 <- inception_3a/output_inception_3a/output_0_split_0
I0223 11:39:06.295078  6396 net.cpp:408] inception_3b/1x1 -> inception_3b/1x1
I0223 11:39:06.296106  6396 net.cpp:150] Setting up inception_3b/1x1
I0223 11:39:06.296115  6396 net.cpp:157] Top shape: 50 128 28 28 (5017600)
I0223 11:39:06.296118  6396 net.cpp:165] Memory required for data: 1421062000
I0223 11:39:06.296123  6396 layer_factory.hpp:77] Creating layer inception_3b/relu_1x1
I0223 11:39:06.296126  6396 net.cpp:100] Creating Layer inception_3b/relu_1x1
I0223 11:39:06.296129  6396 net.cpp:434] inception_3b/relu_1x1 <- inception_3b/1x1
I0223 11:39:06.296133  6396 net.cpp:395] inception_3b/relu_1x1 -> inception_3b/1x1 (in-place)
I0223 11:39:06.296272  6396 net.cpp:150] Setting up inception_3b/relu_1x1
I0223 11:39:06.296277  6396 net.cpp:157] Top shape: 50 128 28 28 (5017600)
I0223 11:39:06.296279  6396 net.cpp:165] Memory required for data: 1441132400
I0223 11:39:06.296283  6396 layer_factory.hpp:77] Creating layer inception_3b/3x3_reduce
I0223 11:39:06.296288  6396 net.cpp:100] Creating Layer inception_3b/3x3_reduce
I0223 11:39:06.296290  6396 net.cpp:434] inception_3b/3x3_reduce <- inception_3a/output_inception_3a/output_0_split_1
I0223 11:39:06.296295  6396 net.cpp:408] inception_3b/3x3_reduce -> inception_3b/3x3_reduce
I0223 11:39:06.297384  6396 net.cpp:150] Setting up inception_3b/3x3_reduce
I0223 11:39:06.297391  6396 net.cpp:157] Top shape: 50 128 28 28 (5017600)
I0223 11:39:06.297394  6396 net.cpp:165] Memory required for data: 1461202800
I0223 11:39:06.297399  6396 layer_factory.hpp:77] Creating layer inception_3b/relu_3x3_reduce
I0223 11:39:06.297403  6396 net.cpp:100] Creating Layer inception_3b/relu_3x3_reduce
I0223 11:39:06.297413  6396 net.cpp:434] inception_3b/relu_3x3_reduce <- inception_3b/3x3_reduce
I0223 11:39:06.297417  6396 net.cpp:395] inception_3b/relu_3x3_reduce -> inception_3b/3x3_reduce (in-place)
I0223 11:39:06.297804  6396 net.cpp:150] Setting up inception_3b/relu_3x3_reduce
I0223 11:39:06.297811  6396 net.cpp:157] Top shape: 50 128 28 28 (5017600)
I0223 11:39:06.297814  6396 net.cpp:165] Memory required for data: 1481273200
I0223 11:39:06.297816  6396 layer_factory.hpp:77] Creating layer inception_3b/3x3
I0223 11:39:06.297824  6396 net.cpp:100] Creating Layer inception_3b/3x3
I0223 11:39:06.297827  6396 net.cpp:434] inception_3b/3x3 <- inception_3b/3x3_reduce
I0223 11:39:06.297832  6396 net.cpp:408] inception_3b/3x3 -> inception_3b/3x3
I0223 11:39:06.300561  6396 net.cpp:150] Setting up inception_3b/3x3
I0223 11:39:06.300571  6396 net.cpp:157] Top shape: 50 192 28 28 (7526400)
I0223 11:39:06.300575  6396 net.cpp:165] Memory required for data: 1511378800
I0223 11:39:06.300580  6396 layer_factory.hpp:77] Creating layer inception_3b/relu_3x3
I0223 11:39:06.300585  6396 net.cpp:100] Creating Layer inception_3b/relu_3x3
I0223 11:39:06.300601  6396 net.cpp:434] inception_3b/relu_3x3 <- inception_3b/3x3
I0223 11:39:06.300604  6396 net.cpp:395] inception_3b/relu_3x3 -> inception_3b/3x3 (in-place)
I0223 11:39:06.300747  6396 net.cpp:150] Setting up inception_3b/relu_3x3
I0223 11:39:06.300752  6396 net.cpp:157] Top shape: 50 192 28 28 (7526400)
I0223 11:39:06.300755  6396 net.cpp:165] Memory required for data: 1541484400
I0223 11:39:06.300757  6396 layer_factory.hpp:77] Creating layer inception_3b/5x5_reduce
I0223 11:39:06.300763  6396 net.cpp:100] Creating Layer inception_3b/5x5_reduce
I0223 11:39:06.300765  6396 net.cpp:434] inception_3b/5x5_reduce <- inception_3a/output_inception_3a/output_0_split_2
I0223 11:39:06.300770  6396 net.cpp:408] inception_3b/5x5_reduce -> inception_3b/5x5_reduce
I0223 11:39:06.301735  6396 net.cpp:150] Setting up inception_3b/5x5_reduce
I0223 11:39:06.301743  6396 net.cpp:157] Top shape: 50 32 28 28 (1254400)
I0223 11:39:06.301746  6396 net.cpp:165] Memory required for data: 1546502000
I0223 11:39:06.301750  6396 layer_factory.hpp:77] Creating layer inception_3b/relu_5x5_reduce
I0223 11:39:06.301755  6396 net.cpp:100] Creating Layer inception_3b/relu_5x5_reduce
I0223 11:39:06.301759  6396 net.cpp:434] inception_3b/relu_5x5_reduce <- inception_3b/5x5_reduce
I0223 11:39:06.301761  6396 net.cpp:395] inception_3b/relu_5x5_reduce -> inception_3b/5x5_reduce (in-place)
I0223 11:39:06.301893  6396 net.cpp:150] Setting up inception_3b/relu_5x5_reduce
I0223 11:39:06.301898  6396 net.cpp:157] Top shape: 50 32 28 28 (1254400)
I0223 11:39:06.301900  6396 net.cpp:165] Memory required for data: 1551519600
I0223 11:39:06.301903  6396 layer_factory.hpp:77] Creating layer inception_3b/5x5
I0223 11:39:06.301908  6396 net.cpp:100] Creating Layer inception_3b/5x5
I0223 11:39:06.301911  6396 net.cpp:434] inception_3b/5x5 <- inception_3b/5x5_reduce
I0223 11:39:06.301915  6396 net.cpp:408] inception_3b/5x5 -> inception_3b/5x5
I0223 11:39:06.303310  6396 net.cpp:150] Setting up inception_3b/5x5
I0223 11:39:06.303318  6396 net.cpp:157] Top shape: 50 96 28 28 (3763200)
I0223 11:39:06.303321  6396 net.cpp:165] Memory required for data: 1566572400
I0223 11:39:06.303325  6396 layer_factory.hpp:77] Creating layer inception_3b/relu_5x5
I0223 11:39:06.303329  6396 net.cpp:100] Creating Layer inception_3b/relu_5x5
I0223 11:39:06.303333  6396 net.cpp:434] inception_3b/relu_5x5 <- inception_3b/5x5
I0223 11:39:06.303336  6396 net.cpp:395] inception_3b/relu_5x5 -> inception_3b/5x5 (in-place)
I0223 11:39:06.303730  6396 net.cpp:150] Setting up inception_3b/relu_5x5
I0223 11:39:06.303737  6396 net.cpp:157] Top shape: 50 96 28 28 (3763200)
I0223 11:39:06.303740  6396 net.cpp:165] Memory required for data: 1581625200
I0223 11:39:06.303742  6396 layer_factory.hpp:77] Creating layer inception_3b/pool
I0223 11:39:06.303747  6396 net.cpp:100] Creating Layer inception_3b/pool
I0223 11:39:06.303759  6396 net.cpp:434] inception_3b/pool <- inception_3a/output_inception_3a/output_0_split_3
I0223 11:39:06.303776  6396 net.cpp:408] inception_3b/pool -> inception_3b/pool
I0223 11:39:06.303814  6396 net.cpp:150] Setting up inception_3b/pool
I0223 11:39:06.303818  6396 net.cpp:157] Top shape: 50 256 28 28 (10035200)
I0223 11:39:06.303822  6396 net.cpp:165] Memory required for data: 1621766000
I0223 11:39:06.303823  6396 layer_factory.hpp:77] Creating layer inception_3b/pool_proj
I0223 11:39:06.303828  6396 net.cpp:100] Creating Layer inception_3b/pool_proj
I0223 11:39:06.303831  6396 net.cpp:434] inception_3b/pool_proj <- inception_3b/pool
I0223 11:39:06.303835  6396 net.cpp:408] inception_3b/pool_proj -> inception_3b/pool_proj
I0223 11:39:06.305905  6396 net.cpp:150] Setting up inception_3b/pool_proj
I0223 11:39:06.305930  6396 net.cpp:157] Top shape: 50 64 28 28 (2508800)
I0223 11:39:06.305933  6396 net.cpp:165] Memory required for data: 1631801200
I0223 11:39:06.305953  6396 layer_factory.hpp:77] Creating layer inception_3b/relu_pool_proj
I0223 11:39:06.305958  6396 net.cpp:100] Creating Layer inception_3b/relu_pool_proj
I0223 11:39:06.305963  6396 net.cpp:434] inception_3b/relu_pool_proj <- inception_3b/pool_proj
I0223 11:39:06.305966  6396 net.cpp:395] inception_3b/relu_pool_proj -> inception_3b/pool_proj (in-place)
I0223 11:39:06.306144  6396 net.cpp:150] Setting up inception_3b/relu_pool_proj
I0223 11:39:06.306150  6396 net.cpp:157] Top shape: 50 64 28 28 (2508800)
I0223 11:39:06.306152  6396 net.cpp:165] Memory required for data: 1641836400
I0223 11:39:06.306155  6396 layer_factory.hpp:77] Creating layer inception_3b/output
I0223 11:39:06.306159  6396 net.cpp:100] Creating Layer inception_3b/output
I0223 11:39:06.306162  6396 net.cpp:434] inception_3b/output <- inception_3b/1x1
I0223 11:39:06.306166  6396 net.cpp:434] inception_3b/output <- inception_3b/3x3
I0223 11:39:06.306169  6396 net.cpp:434] inception_3b/output <- inception_3b/5x5
I0223 11:39:06.306172  6396 net.cpp:434] inception_3b/output <- inception_3b/pool_proj
I0223 11:39:06.306176  6396 net.cpp:408] inception_3b/output -> inception_3b/output
I0223 11:39:06.306200  6396 net.cpp:150] Setting up inception_3b/output
I0223 11:39:06.306205  6396 net.cpp:157] Top shape: 50 480 28 28 (18816000)
I0223 11:39:06.306206  6396 net.cpp:165] Memory required for data: 1717100400
I0223 11:39:06.306208  6396 layer_factory.hpp:77] Creating layer pool3/3x3_s2
I0223 11:39:06.306213  6396 net.cpp:100] Creating Layer pool3/3x3_s2
I0223 11:39:06.306216  6396 net.cpp:434] pool3/3x3_s2 <- inception_3b/output
I0223 11:39:06.306221  6396 net.cpp:408] pool3/3x3_s2 -> pool3/3x3_s2
I0223 11:39:06.306267  6396 net.cpp:150] Setting up pool3/3x3_s2
I0223 11:39:06.306272  6396 net.cpp:157] Top shape: 50 480 14 14 (4704000)
I0223 11:39:06.306274  6396 net.cpp:165] Memory required for data: 1735916400
I0223 11:39:06.306277  6396 layer_factory.hpp:77] Creating layer pool3/3x3_s2_pool3/3x3_s2_0_split
I0223 11:39:06.306294  6396 net.cpp:100] Creating Layer pool3/3x3_s2_pool3/3x3_s2_0_split
I0223 11:39:06.306298  6396 net.cpp:434] pool3/3x3_s2_pool3/3x3_s2_0_split <- pool3/3x3_s2
I0223 11:39:06.306300  6396 net.cpp:408] pool3/3x3_s2_pool3/3x3_s2_0_split -> pool3/3x3_s2_pool3/3x3_s2_0_split_0
I0223 11:39:06.306304  6396 net.cpp:408] pool3/3x3_s2_pool3/3x3_s2_0_split -> pool3/3x3_s2_pool3/3x3_s2_0_split_1
I0223 11:39:06.306308  6396 net.cpp:408] pool3/3x3_s2_pool3/3x3_s2_0_split -> pool3/3x3_s2_pool3/3x3_s2_0_split_2
I0223 11:39:06.306313  6396 net.cpp:408] pool3/3x3_s2_pool3/3x3_s2_0_split -> pool3/3x3_s2_pool3/3x3_s2_0_split_3
I0223 11:39:06.306375  6396 net.cpp:150] Setting up pool3/3x3_s2_pool3/3x3_s2_0_split
I0223 11:39:06.306396  6396 net.cpp:157] Top shape: 50 480 14 14 (4704000)
I0223 11:39:06.306412  6396 net.cpp:157] Top shape: 50 480 14 14 (4704000)
I0223 11:39:06.306416  6396 net.cpp:157] Top shape: 50 480 14 14 (4704000)
I0223 11:39:06.306419  6396 net.cpp:157] Top shape: 50 480 14 14 (4704000)
I0223 11:39:06.306421  6396 net.cpp:165] Memory required for data: 1811180400
I0223 11:39:06.306435  6396 layer_factory.hpp:77] Creating layer inception_4a/1x1
I0223 11:39:06.306442  6396 net.cpp:100] Creating Layer inception_4a/1x1
I0223 11:39:06.306445  6396 net.cpp:434] inception_4a/1x1 <- pool3/3x3_s2_pool3/3x3_s2_0_split_0
I0223 11:39:06.306450  6396 net.cpp:408] inception_4a/1x1 -> inception_4a/1x1
I0223 11:39:06.308372  6396 net.cpp:150] Setting up inception_4a/1x1
I0223 11:39:06.308385  6396 net.cpp:157] Top shape: 50 192 14 14 (1881600)
I0223 11:39:06.308388  6396 net.cpp:165] Memory required for data: 1818706800
I0223 11:39:06.308394  6396 layer_factory.hpp:77] Creating layer inception_4a/relu_1x1
I0223 11:39:06.308400  6396 net.cpp:100] Creating Layer inception_4a/relu_1x1
I0223 11:39:06.308404  6396 net.cpp:434] inception_4a/relu_1x1 <- inception_4a/1x1
I0223 11:39:06.308408  6396 net.cpp:395] inception_4a/relu_1x1 -> inception_4a/1x1 (in-place)
I0223 11:39:06.308545  6396 net.cpp:150] Setting up inception_4a/relu_1x1
I0223 11:39:06.308565  6396 net.cpp:157] Top shape: 50 192 14 14 (1881600)
I0223 11:39:06.308568  6396 net.cpp:165] Memory required for data: 1826233200
I0223 11:39:06.308570  6396 layer_factory.hpp:77] Creating layer inception_4a/3x3_reduce
I0223 11:39:06.308576  6396 net.cpp:100] Creating Layer inception_4a/3x3_reduce
I0223 11:39:06.308579  6396 net.cpp:434] inception_4a/3x3_reduce <- pool3/3x3_s2_pool3/3x3_s2_0_split_1
I0223 11:39:06.308598  6396 net.cpp:408] inception_4a/3x3_reduce -> inception_4a/3x3_reduce
I0223 11:39:06.310858  6396 net.cpp:150] Setting up inception_4a/3x3_reduce
I0223 11:39:06.310868  6396 net.cpp:157] Top shape: 50 96 14 14 (940800)
I0223 11:39:06.310871  6396 net.cpp:165] Memory required for data: 1829996400
I0223 11:39:06.310879  6396 layer_factory.hpp:77] Creating layer inception_4a/relu_3x3_reduce
I0223 11:39:06.310885  6396 net.cpp:100] Creating Layer inception_4a/relu_3x3_reduce
I0223 11:39:06.310889  6396 net.cpp:434] inception_4a/relu_3x3_reduce <- inception_4a/3x3_reduce
I0223 11:39:06.310894  6396 net.cpp:395] inception_4a/relu_3x3_reduce -> inception_4a/3x3_reduce (in-place)
I0223 11:39:06.311327  6396 net.cpp:150] Setting up inception_4a/relu_3x3_reduce
I0223 11:39:06.311336  6396 net.cpp:157] Top shape: 50 96 14 14 (940800)
I0223 11:39:06.311338  6396 net.cpp:165] Memory required for data: 1833759600
I0223 11:39:06.311341  6396 layer_factory.hpp:77] Creating layer inception_4a/3x3
I0223 11:39:06.311348  6396 net.cpp:100] Creating Layer inception_4a/3x3
I0223 11:39:06.311352  6396 net.cpp:434] inception_4a/3x3 <- inception_4a/3x3_reduce
I0223 11:39:06.311357  6396 net.cpp:408] inception_4a/3x3 -> inception_4a/3x3
I0223 11:39:06.314391  6396 net.cpp:150] Setting up inception_4a/3x3
I0223 11:39:06.314401  6396 net.cpp:157] Top shape: 50 208 14 14 (2038400)
I0223 11:39:06.314404  6396 net.cpp:165] Memory required for data: 1841913200
I0223 11:39:06.314410  6396 layer_factory.hpp:77] Creating layer inception_4a/relu_3x3
I0223 11:39:06.314416  6396 net.cpp:100] Creating Layer inception_4a/relu_3x3
I0223 11:39:06.314419  6396 net.cpp:434] inception_4a/relu_3x3 <- inception_4a/3x3
I0223 11:39:06.314424  6396 net.cpp:395] inception_4a/relu_3x3 -> inception_4a/3x3 (in-place)
I0223 11:39:06.314615  6396 net.cpp:150] Setting up inception_4a/relu_3x3
I0223 11:39:06.314622  6396 net.cpp:157] Top shape: 50 208 14 14 (2038400)
I0223 11:39:06.314625  6396 net.cpp:165] Memory required for data: 1850066800
I0223 11:39:06.314628  6396 layer_factory.hpp:77] Creating layer inception_4a/5x5_reduce
I0223 11:39:06.314648  6396 net.cpp:100] Creating Layer inception_4a/5x5_reduce
I0223 11:39:06.314651  6396 net.cpp:434] inception_4a/5x5_reduce <- pool3/3x3_s2_pool3/3x3_s2_0_split_2
I0223 11:39:06.314656  6396 net.cpp:408] inception_4a/5x5_reduce -> inception_4a/5x5_reduce
I0223 11:39:06.315662  6396 net.cpp:150] Setting up inception_4a/5x5_reduce
I0223 11:39:06.315670  6396 net.cpp:157] Top shape: 50 16 14 14 (156800)
I0223 11:39:06.315672  6396 net.cpp:165] Memory required for data: 1850694000
I0223 11:39:06.315676  6396 layer_factory.hpp:77] Creating layer inception_4a/relu_5x5_reduce
I0223 11:39:06.315692  6396 net.cpp:100] Creating Layer inception_4a/relu_5x5_reduce
I0223 11:39:06.315696  6396 net.cpp:434] inception_4a/relu_5x5_reduce <- inception_4a/5x5_reduce
I0223 11:39:06.315699  6396 net.cpp:395] inception_4a/relu_5x5_reduce -> inception_4a/5x5_reduce (in-place)
I0223 11:39:06.315829  6396 net.cpp:150] Setting up inception_4a/relu_5x5_reduce
I0223 11:39:06.315835  6396 net.cpp:157] Top shape: 50 16 14 14 (156800)
I0223 11:39:06.315837  6396 net.cpp:165] Memory required for data: 1851321200
I0223 11:39:06.315840  6396 layer_factory.hpp:77] Creating layer inception_4a/5x5
I0223 11:39:06.315845  6396 net.cpp:100] Creating Layer inception_4a/5x5
I0223 11:39:06.315847  6396 net.cpp:434] inception_4a/5x5 <- inception_4a/5x5_reduce
I0223 11:39:06.315851  6396 net.cpp:408] inception_4a/5x5 -> inception_4a/5x5
I0223 11:39:06.316915  6396 net.cpp:150] Setting up inception_4a/5x5
I0223 11:39:06.316923  6396 net.cpp:157] Top shape: 50 48 14 14 (470400)
I0223 11:39:06.316926  6396 net.cpp:165] Memory required for data: 1853202800
I0223 11:39:06.316931  6396 layer_factory.hpp:77] Creating layer inception_4a/relu_5x5
I0223 11:39:06.316941  6396 net.cpp:100] Creating Layer inception_4a/relu_5x5
I0223 11:39:06.316943  6396 net.cpp:434] inception_4a/relu_5x5 <- inception_4a/5x5
I0223 11:39:06.316961  6396 net.cpp:395] inception_4a/relu_5x5 -> inception_4a/5x5 (in-place)
I0223 11:39:06.317108  6396 net.cpp:150] Setting up inception_4a/relu_5x5
I0223 11:39:06.317114  6396 net.cpp:157] Top shape: 50 48 14 14 (470400)
I0223 11:39:06.317116  6396 net.cpp:165] Memory required for data: 1855084400
I0223 11:39:06.317118  6396 layer_factory.hpp:77] Creating layer inception_4a/pool
I0223 11:39:06.317123  6396 net.cpp:100] Creating Layer inception_4a/pool
I0223 11:39:06.317126  6396 net.cpp:434] inception_4a/pool <- pool3/3x3_s2_pool3/3x3_s2_0_split_3
I0223 11:39:06.317129  6396 net.cpp:408] inception_4a/pool -> inception_4a/pool
I0223 11:39:06.317167  6396 net.cpp:150] Setting up inception_4a/pool
I0223 11:39:06.317170  6396 net.cpp:157] Top shape: 50 480 14 14 (4704000)
I0223 11:39:06.317173  6396 net.cpp:165] Memory required for data: 1873900400
I0223 11:39:06.317174  6396 layer_factory.hpp:77] Creating layer inception_4a/pool_proj
I0223 11:39:06.317180  6396 net.cpp:100] Creating Layer inception_4a/pool_proj
I0223 11:39:06.317183  6396 net.cpp:434] inception_4a/pool_proj <- inception_4a/pool
I0223 11:39:06.317188  6396 net.cpp:408] inception_4a/pool_proj -> inception_4a/pool_proj
I0223 11:39:06.318289  6396 net.cpp:150] Setting up inception_4a/pool_proj
I0223 11:39:06.318297  6396 net.cpp:157] Top shape: 50 64 14 14 (627200)
I0223 11:39:06.318300  6396 net.cpp:165] Memory required for data: 1876409200
I0223 11:39:06.318305  6396 layer_factory.hpp:77] Creating layer inception_4a/relu_pool_proj
I0223 11:39:06.318308  6396 net.cpp:100] Creating Layer inception_4a/relu_pool_proj
I0223 11:39:06.318311  6396 net.cpp:434] inception_4a/relu_pool_proj <- inception_4a/pool_proj
I0223 11:39:06.318315  6396 net.cpp:395] inception_4a/relu_pool_proj -> inception_4a/pool_proj (in-place)
I0223 11:39:06.318722  6396 net.cpp:150] Setting up inception_4a/relu_pool_proj
I0223 11:39:06.318730  6396 net.cpp:157] Top shape: 50 64 14 14 (627200)
I0223 11:39:06.318732  6396 net.cpp:165] Memory required for data: 1878918000
I0223 11:39:06.318735  6396 layer_factory.hpp:77] Creating layer inception_4a/output
I0223 11:39:06.318739  6396 net.cpp:100] Creating Layer inception_4a/output
I0223 11:39:06.318742  6396 net.cpp:434] inception_4a/output <- inception_4a/1x1
I0223 11:39:06.318745  6396 net.cpp:434] inception_4a/output <- inception_4a/3x3
I0223 11:39:06.318748  6396 net.cpp:434] inception_4a/output <- inception_4a/5x5
I0223 11:39:06.318752  6396 net.cpp:434] inception_4a/output <- inception_4a/pool_proj
I0223 11:39:06.318754  6396 net.cpp:408] inception_4a/output -> inception_4a/output
I0223 11:39:06.318778  6396 net.cpp:150] Setting up inception_4a/output
I0223 11:39:06.318783  6396 net.cpp:157] Top shape: 50 512 14 14 (5017600)
I0223 11:39:06.318792  6396 net.cpp:165] Memory required for data: 1898988400
I0223 11:39:06.318795  6396 layer_factory.hpp:77] Creating layer inception_4a/output_inception_4a/output_0_split
I0223 11:39:06.318799  6396 net.cpp:100] Creating Layer inception_4a/output_inception_4a/output_0_split
I0223 11:39:06.318801  6396 net.cpp:434] inception_4a/output_inception_4a/output_0_split <- inception_4a/output
I0223 11:39:06.318804  6396 net.cpp:408] inception_4a/output_inception_4a/output_0_split -> inception_4a/output_inception_4a/output_0_split_0
I0223 11:39:06.318809  6396 net.cpp:408] inception_4a/output_inception_4a/output_0_split -> inception_4a/output_inception_4a/output_0_split_1
I0223 11:39:06.318814  6396 net.cpp:408] inception_4a/output_inception_4a/output_0_split -> inception_4a/output_inception_4a/output_0_split_2
I0223 11:39:06.318816  6396 net.cpp:408] inception_4a/output_inception_4a/output_0_split -> inception_4a/output_inception_4a/output_0_split_3
I0223 11:39:06.318872  6396 net.cpp:150] Setting up inception_4a/output_inception_4a/output_0_split
I0223 11:39:06.318876  6396 net.cpp:157] Top shape: 50 512 14 14 (5017600)
I0223 11:39:06.318879  6396 net.cpp:157] Top shape: 50 512 14 14 (5017600)
I0223 11:39:06.318882  6396 net.cpp:157] Top shape: 50 512 14 14 (5017600)
I0223 11:39:06.318884  6396 net.cpp:157] Top shape: 50 512 14 14 (5017600)
I0223 11:39:06.318886  6396 net.cpp:165] Memory required for data: 1979270000
I0223 11:39:06.318888  6396 layer_factory.hpp:77] Creating layer inception_4b/1x1
I0223 11:39:06.318893  6396 net.cpp:100] Creating Layer inception_4b/1x1
I0223 11:39:06.318897  6396 net.cpp:434] inception_4b/1x1 <- inception_4a/output_inception_4a/output_0_split_0
I0223 11:39:06.318900  6396 net.cpp:408] inception_4b/1x1 -> inception_4b/1x1
I0223 11:39:06.320202  6396 net.cpp:150] Setting up inception_4b/1x1
I0223 11:39:06.320224  6396 net.cpp:157] Top shape: 50 160 14 14 (1568000)
I0223 11:39:06.320226  6396 net.cpp:165] Memory required for data: 1985542000
I0223 11:39:06.320230  6396 layer_factory.hpp:77] Creating layer inception_4b/relu_1x1
I0223 11:39:06.320235  6396 net.cpp:100] Creating Layer inception_4b/relu_1x1
I0223 11:39:06.320238  6396 net.cpp:434] inception_4b/relu_1x1 <- inception_4b/1x1
I0223 11:39:06.320242  6396 net.cpp:395] inception_4b/relu_1x1 -> inception_4b/1x1 (in-place)
I0223 11:39:06.320374  6396 net.cpp:150] Setting up inception_4b/relu_1x1
I0223 11:39:06.320381  6396 net.cpp:157] Top shape: 50 160 14 14 (1568000)
I0223 11:39:06.320384  6396 net.cpp:165] Memory required for data: 1991814000
I0223 11:39:06.320385  6396 layer_factory.hpp:77] Creating layer inception_4b/3x3_reduce
I0223 11:39:06.320391  6396 net.cpp:100] Creating Layer inception_4b/3x3_reduce
I0223 11:39:06.320394  6396 net.cpp:434] inception_4b/3x3_reduce <- inception_4a/output_inception_4a/output_0_split_1
I0223 11:39:06.320399  6396 net.cpp:408] inception_4b/3x3_reduce -> inception_4b/3x3_reduce
I0223 11:39:06.321844  6396 net.cpp:150] Setting up inception_4b/3x3_reduce
I0223 11:39:06.321856  6396 net.cpp:157] Top shape: 50 112 14 14 (1097600)
I0223 11:39:06.321858  6396 net.cpp:165] Memory required for data: 1996204400
I0223 11:39:06.321863  6396 layer_factory.hpp:77] Creating layer inception_4b/relu_3x3_reduce
I0223 11:39:06.321867  6396 net.cpp:100] Creating Layer inception_4b/relu_3x3_reduce
I0223 11:39:06.321871  6396 net.cpp:434] inception_4b/relu_3x3_reduce <- inception_4b/3x3_reduce
I0223 11:39:06.321876  6396 net.cpp:395] inception_4b/relu_3x3_reduce -> inception_4b/3x3_reduce (in-place)
I0223 11:39:06.322044  6396 net.cpp:150] Setting up inception_4b/relu_3x3_reduce
I0223 11:39:06.322049  6396 net.cpp:157] Top shape: 50 112 14 14 (1097600)
I0223 11:39:06.322052  6396 net.cpp:165] Memory required for data: 2000594800
I0223 11:39:06.322054  6396 layer_factory.hpp:77] Creating layer inception_4b/3x3
I0223 11:39:06.322060  6396 net.cpp:100] Creating Layer inception_4b/3x3
I0223 11:39:06.322063  6396 net.cpp:434] inception_4b/3x3 <- inception_4b/3x3_reduce
I0223 11:39:06.322068  6396 net.cpp:408] inception_4b/3x3 -> inception_4b/3x3
I0223 11:39:06.329293  6396 net.cpp:150] Setting up inception_4b/3x3
I0223 11:39:06.329308  6396 net.cpp:157] Top shape: 50 224 14 14 (2195200)
I0223 11:39:06.329311  6396 net.cpp:165] Memory required for data: 2009375600
I0223 11:39:06.329331  6396 layer_factory.hpp:77] Creating layer inception_4b/relu_3x3
I0223 11:39:06.329339  6396 net.cpp:100] Creating Layer inception_4b/relu_3x3
I0223 11:39:06.329344  6396 net.cpp:434] inception_4b/relu_3x3 <- inception_4b/3x3
I0223 11:39:06.329349  6396 net.cpp:395] inception_4b/relu_3x3 -> inception_4b/3x3 (in-place)
I0223 11:39:06.329758  6396 net.cpp:150] Setting up inception_4b/relu_3x3
I0223 11:39:06.329766  6396 net.cpp:157] Top shape: 50 224 14 14 (2195200)
I0223 11:39:06.329769  6396 net.cpp:165] Memory required for data: 2018156400
I0223 11:39:06.329772  6396 layer_factory.hpp:77] Creating layer inception_4b/5x5_reduce
I0223 11:39:06.329795  6396 net.cpp:100] Creating Layer inception_4b/5x5_reduce
I0223 11:39:06.329798  6396 net.cpp:434] inception_4b/5x5_reduce <- inception_4a/output_inception_4a/output_0_split_2
I0223 11:39:06.329803  6396 net.cpp:408] inception_4b/5x5_reduce -> inception_4b/5x5_reduce
I0223 11:39:06.330951  6396 net.cpp:150] Setting up inception_4b/5x5_reduce
I0223 11:39:06.330960  6396 net.cpp:157] Top shape: 50 24 14 14 (235200)
I0223 11:39:06.330963  6396 net.cpp:165] Memory required for data: 2019097200
I0223 11:39:06.330967  6396 layer_factory.hpp:77] Creating layer inception_4b/relu_5x5_reduce
I0223 11:39:06.330972  6396 net.cpp:100] Creating Layer inception_4b/relu_5x5_reduce
I0223 11:39:06.330976  6396 net.cpp:434] inception_4b/relu_5x5_reduce <- inception_4b/5x5_reduce
I0223 11:39:06.330979  6396 net.cpp:395] inception_4b/relu_5x5_reduce -> inception_4b/5x5_reduce (in-place)
I0223 11:39:06.331118  6396 net.cpp:150] Setting up inception_4b/relu_5x5_reduce
I0223 11:39:06.331123  6396 net.cpp:157] Top shape: 50 24 14 14 (235200)
I0223 11:39:06.331125  6396 net.cpp:165] Memory required for data: 2020038000
I0223 11:39:06.331127  6396 layer_factory.hpp:77] Creating layer inception_4b/5x5
I0223 11:39:06.331135  6396 net.cpp:100] Creating Layer inception_4b/5x5
I0223 11:39:06.331136  6396 net.cpp:434] inception_4b/5x5 <- inception_4b/5x5_reduce
I0223 11:39:06.331141  6396 net.cpp:408] inception_4b/5x5 -> inception_4b/5x5
I0223 11:39:06.332296  6396 net.cpp:150] Setting up inception_4b/5x5
I0223 11:39:06.332305  6396 net.cpp:157] Top shape: 50 64 14 14 (627200)
I0223 11:39:06.332307  6396 net.cpp:165] Memory required for data: 2022546800
I0223 11:39:06.332311  6396 layer_factory.hpp:77] Creating layer inception_4b/relu_5x5
I0223 11:39:06.332315  6396 net.cpp:100] Creating Layer inception_4b/relu_5x5
I0223 11:39:06.332319  6396 net.cpp:434] inception_4b/relu_5x5 <- inception_4b/5x5
I0223 11:39:06.332322  6396 net.cpp:395] inception_4b/relu_5x5 -> inception_4b/5x5 (in-place)
I0223 11:39:06.332455  6396 net.cpp:150] Setting up inception_4b/relu_5x5
I0223 11:39:06.332460  6396 net.cpp:157] Top shape: 50 64 14 14 (627200)
I0223 11:39:06.332463  6396 net.cpp:165] Memory required for data: 2025055600
I0223 11:39:06.332464  6396 layer_factory.hpp:77] Creating layer inception_4b/pool
I0223 11:39:06.332469  6396 net.cpp:100] Creating Layer inception_4b/pool
I0223 11:39:06.332473  6396 net.cpp:434] inception_4b/pool <- inception_4a/output_inception_4a/output_0_split_3
I0223 11:39:06.332476  6396 net.cpp:408] inception_4b/pool -> inception_4b/pool
I0223 11:39:06.332512  6396 net.cpp:150] Setting up inception_4b/pool
I0223 11:39:06.332516  6396 net.cpp:157] Top shape: 50 512 14 14 (5017600)
I0223 11:39:06.332520  6396 net.cpp:165] Memory required for data: 2045126000
I0223 11:39:06.332521  6396 layer_factory.hpp:77] Creating layer inception_4b/pool_proj
I0223 11:39:06.332526  6396 net.cpp:100] Creating Layer inception_4b/pool_proj
I0223 11:39:06.332530  6396 net.cpp:434] inception_4b/pool_proj <- inception_4b/pool
I0223 11:39:06.332533  6396 net.cpp:408] inception_4b/pool_proj -> inception_4b/pool_proj
I0223 11:39:06.333597  6396 net.cpp:150] Setting up inception_4b/pool_proj
I0223 11:39:06.333606  6396 net.cpp:157] Top shape: 50 64 14 14 (627200)
I0223 11:39:06.333607  6396 net.cpp:165] Memory required for data: 2047634800
I0223 11:39:06.333612  6396 layer_factory.hpp:77] Creating layer inception_4b/relu_pool_proj
I0223 11:39:06.333616  6396 net.cpp:100] Creating Layer inception_4b/relu_pool_proj
I0223 11:39:06.333618  6396 net.cpp:434] inception_4b/relu_pool_proj <- inception_4b/pool_proj
I0223 11:39:06.333622  6396 net.cpp:395] inception_4b/relu_pool_proj -> inception_4b/pool_proj (in-place)
I0223 11:39:06.334033  6396 net.cpp:150] Setting up inception_4b/relu_pool_proj
I0223 11:39:06.334040  6396 net.cpp:157] Top shape: 50 64 14 14 (627200)
I0223 11:39:06.334043  6396 net.cpp:165] Memory required for data: 2050143600
I0223 11:39:06.334045  6396 layer_factory.hpp:77] Creating layer inception_4b/output
I0223 11:39:06.334049  6396 net.cpp:100] Creating Layer inception_4b/output
I0223 11:39:06.334053  6396 net.cpp:434] inception_4b/output <- inception_4b/1x1
I0223 11:39:06.334055  6396 net.cpp:434] inception_4b/output <- inception_4b/3x3
I0223 11:39:06.334059  6396 net.cpp:434] inception_4b/output <- inception_4b/5x5
I0223 11:39:06.334061  6396 net.cpp:434] inception_4b/output <- inception_4b/pool_proj
I0223 11:39:06.334065  6396 net.cpp:408] inception_4b/output -> inception_4b/output
I0223 11:39:06.334090  6396 net.cpp:150] Setting up inception_4b/output
I0223 11:39:06.334095  6396 net.cpp:157] Top shape: 50 512 14 14 (5017600)
I0223 11:39:06.334097  6396 net.cpp:165] Memory required for data: 2070214000
I0223 11:39:06.334100  6396 layer_factory.hpp:77] Creating layer inception_4b/output_inception_4b/output_0_split
I0223 11:39:06.334102  6396 net.cpp:100] Creating Layer inception_4b/output_inception_4b/output_0_split
I0223 11:39:06.334105  6396 net.cpp:434] inception_4b/output_inception_4b/output_0_split <- inception_4b/output
I0223 11:39:06.334110  6396 net.cpp:408] inception_4b/output_inception_4b/output_0_split -> inception_4b/output_inception_4b/output_0_split_0
I0223 11:39:06.334113  6396 net.cpp:408] inception_4b/output_inception_4b/output_0_split -> inception_4b/output_inception_4b/output_0_split_1
I0223 11:39:06.334117  6396 net.cpp:408] inception_4b/output_inception_4b/output_0_split -> inception_4b/output_inception_4b/output_0_split_2
I0223 11:39:06.334121  6396 net.cpp:408] inception_4b/output_inception_4b/output_0_split -> inception_4b/output_inception_4b/output_0_split_3
I0223 11:39:06.334178  6396 net.cpp:150] Setting up inception_4b/output_inception_4b/output_0_split
I0223 11:39:06.334182  6396 net.cpp:157] Top shape: 50 512 14 14 (5017600)
I0223 11:39:06.334185  6396 net.cpp:157] Top shape: 50 512 14 14 (5017600)
I0223 11:39:06.334187  6396 net.cpp:157] Top shape: 50 512 14 14 (5017600)
I0223 11:39:06.334190  6396 net.cpp:157] Top shape: 50 512 14 14 (5017600)
I0223 11:39:06.334192  6396 net.cpp:165] Memory required for data: 2150495600
I0223 11:39:06.334208  6396 layer_factory.hpp:77] Creating layer inception_4c/1x1
I0223 11:39:06.334213  6396 net.cpp:100] Creating Layer inception_4c/1x1
I0223 11:39:06.334216  6396 net.cpp:434] inception_4c/1x1 <- inception_4b/output_inception_4b/output_0_split_0
I0223 11:39:06.334220  6396 net.cpp:408] inception_4c/1x1 -> inception_4c/1x1
I0223 11:39:06.335451  6396 net.cpp:150] Setting up inception_4c/1x1
I0223 11:39:06.335460  6396 net.cpp:157] Top shape: 50 128 14 14 (1254400)
I0223 11:39:06.335464  6396 net.cpp:165] Memory required for data: 2155513200
I0223 11:39:06.335469  6396 layer_factory.hpp:77] Creating layer inception_4c/relu_1x1
I0223 11:39:06.335471  6396 net.cpp:100] Creating Layer inception_4c/relu_1x1
I0223 11:39:06.335474  6396 net.cpp:434] inception_4c/relu_1x1 <- inception_4c/1x1
I0223 11:39:06.335479  6396 net.cpp:395] inception_4c/relu_1x1 -> inception_4c/1x1 (in-place)
I0223 11:39:06.335631  6396 net.cpp:150] Setting up inception_4c/relu_1x1
I0223 11:39:06.335636  6396 net.cpp:157] Top shape: 50 128 14 14 (1254400)
I0223 11:39:06.335639  6396 net.cpp:165] Memory required for data: 2160530800
I0223 11:39:06.335649  6396 layer_factory.hpp:77] Creating layer inception_4c/3x3_reduce
I0223 11:39:06.335655  6396 net.cpp:100] Creating Layer inception_4c/3x3_reduce
I0223 11:39:06.335659  6396 net.cpp:434] inception_4c/3x3_reduce <- inception_4b/output_inception_4b/output_0_split_1
I0223 11:39:06.335664  6396 net.cpp:408] inception_4c/3x3_reduce -> inception_4c/3x3_reduce
I0223 11:39:06.337863  6396 net.cpp:150] Setting up inception_4c/3x3_reduce
I0223 11:39:06.337872  6396 net.cpp:157] Top shape: 50 128 14 14 (1254400)
I0223 11:39:06.337875  6396 net.cpp:165] Memory required for data: 2165548400
I0223 11:39:06.337894  6396 layer_factory.hpp:77] Creating layer inception_4c/relu_3x3_reduce
I0223 11:39:06.337900  6396 net.cpp:100] Creating Layer inception_4c/relu_3x3_reduce
I0223 11:39:06.337903  6396 net.cpp:434] inception_4c/relu_3x3_reduce <- inception_4c/3x3_reduce
I0223 11:39:06.337908  6396 net.cpp:395] inception_4c/relu_3x3_reduce -> inception_4c/3x3_reduce (in-place)
I0223 11:39:06.338068  6396 net.cpp:150] Setting up inception_4c/relu_3x3_reduce
I0223 11:39:06.338073  6396 net.cpp:157] Top shape: 50 128 14 14 (1254400)
I0223 11:39:06.338076  6396 net.cpp:165] Memory required for data: 2170566000
I0223 11:39:06.338078  6396 layer_factory.hpp:77] Creating layer inception_4c/3x3
I0223 11:39:06.338085  6396 net.cpp:100] Creating Layer inception_4c/3x3
I0223 11:39:06.338089  6396 net.cpp:434] inception_4c/3x3 <- inception_4c/3x3_reduce
I0223 11:39:06.338093  6396 net.cpp:408] inception_4c/3x3 -> inception_4c/3x3
I0223 11:39:06.344794  6396 net.cpp:150] Setting up inception_4c/3x3
I0223 11:39:06.344807  6396 net.cpp:157] Top shape: 50 256 14 14 (2508800)
I0223 11:39:06.344810  6396 net.cpp:165] Memory required for data: 2180601200
I0223 11:39:06.344816  6396 layer_factory.hpp:77] Creating layer inception_4c/relu_3x3
I0223 11:39:06.344825  6396 net.cpp:100] Creating Layer inception_4c/relu_3x3
I0223 11:39:06.344830  6396 net.cpp:434] inception_4c/relu_3x3 <- inception_4c/3x3
I0223 11:39:06.344833  6396 net.cpp:395] inception_4c/relu_3x3 -> inception_4c/3x3 (in-place)
I0223 11:39:06.344983  6396 net.cpp:150] Setting up inception_4c/relu_3x3
I0223 11:39:06.344990  6396 net.cpp:157] Top shape: 50 256 14 14 (2508800)
I0223 11:39:06.344991  6396 net.cpp:165] Memory required for data: 2190636400
I0223 11:39:06.344995  6396 layer_factory.hpp:77] Creating layer inception_4c/5x5_reduce
I0223 11:39:06.345000  6396 net.cpp:100] Creating Layer inception_4c/5x5_reduce
I0223 11:39:06.345003  6396 net.cpp:434] inception_4c/5x5_reduce <- inception_4b/output_inception_4b/output_0_split_2
I0223 11:39:06.345008  6396 net.cpp:408] inception_4c/5x5_reduce -> inception_4c/5x5_reduce
I0223 11:39:06.346034  6396 net.cpp:150] Setting up inception_4c/5x5_reduce
I0223 11:39:06.346041  6396 net.cpp:157] Top shape: 50 24 14 14 (235200)
I0223 11:39:06.346045  6396 net.cpp:165] Memory required for data: 2191577200
I0223 11:39:06.346048  6396 layer_factory.hpp:77] Creating layer inception_4c/relu_5x5_reduce
I0223 11:39:06.346053  6396 net.cpp:100] Creating Layer inception_4c/relu_5x5_reduce
I0223 11:39:06.346056  6396 net.cpp:434] inception_4c/relu_5x5_reduce <- inception_4c/5x5_reduce
I0223 11:39:06.346060  6396 net.cpp:395] inception_4c/relu_5x5_reduce -> inception_4c/5x5_reduce (in-place)
I0223 11:39:06.346499  6396 net.cpp:150] Setting up inception_4c/relu_5x5_reduce
I0223 11:39:06.346508  6396 net.cpp:157] Top shape: 50 24 14 14 (235200)
I0223 11:39:06.346511  6396 net.cpp:165] Memory required for data: 2192518000
I0223 11:39:06.346513  6396 layer_factory.hpp:77] Creating layer inception_4c/5x5
I0223 11:39:06.346519  6396 net.cpp:100] Creating Layer inception_4c/5x5
I0223 11:39:06.346523  6396 net.cpp:434] inception_4c/5x5 <- inception_4c/5x5_reduce
I0223 11:39:06.346527  6396 net.cpp:408] inception_4c/5x5 -> inception_4c/5x5
I0223 11:39:06.347704  6396 net.cpp:150] Setting up inception_4c/5x5
I0223 11:39:06.347712  6396 net.cpp:157] Top shape: 50 64 14 14 (627200)
I0223 11:39:06.347715  6396 net.cpp:165] Memory required for data: 2195026800
I0223 11:39:06.347733  6396 layer_factory.hpp:77] Creating layer inception_4c/relu_5x5
I0223 11:39:06.347738  6396 net.cpp:100] Creating Layer inception_4c/relu_5x5
I0223 11:39:06.347741  6396 net.cpp:434] inception_4c/relu_5x5 <- inception_4c/5x5
I0223 11:39:06.347745  6396 net.cpp:395] inception_4c/relu_5x5 -> inception_4c/5x5 (in-place)
I0223 11:39:06.347884  6396 net.cpp:150] Setting up inception_4c/relu_5x5
I0223 11:39:06.347889  6396 net.cpp:157] Top shape: 50 64 14 14 (627200)
I0223 11:39:06.347892  6396 net.cpp:165] Memory required for data: 2197535600
I0223 11:39:06.347894  6396 layer_factory.hpp:77] Creating layer inception_4c/pool
I0223 11:39:06.347899  6396 net.cpp:100] Creating Layer inception_4c/pool
I0223 11:39:06.347901  6396 net.cpp:434] inception_4c/pool <- inception_4b/output_inception_4b/output_0_split_3
I0223 11:39:06.347906  6396 net.cpp:408] inception_4c/pool -> inception_4c/pool
I0223 11:39:06.347945  6396 net.cpp:150] Setting up inception_4c/pool
I0223 11:39:06.347949  6396 net.cpp:157] Top shape: 50 512 14 14 (5017600)
I0223 11:39:06.347951  6396 net.cpp:165] Memory required for data: 2217606000
I0223 11:39:06.347954  6396 layer_factory.hpp:77] Creating layer inception_4c/pool_proj
I0223 11:39:06.347959  6396 net.cpp:100] Creating Layer inception_4c/pool_proj
I0223 11:39:06.347961  6396 net.cpp:434] inception_4c/pool_proj <- inception_4c/pool
I0223 11:39:06.347966  6396 net.cpp:408] inception_4c/pool_proj -> inception_4c/pool_proj
I0223 11:39:06.349369  6396 net.cpp:150] Setting up inception_4c/pool_proj
I0223 11:39:06.349377  6396 net.cpp:157] Top shape: 50 64 14 14 (627200)
I0223 11:39:06.349380  6396 net.cpp:165] Memory required for data: 2220114800
I0223 11:39:06.349388  6396 layer_factory.hpp:77] Creating layer inception_4c/relu_pool_proj
I0223 11:39:06.349393  6396 net.cpp:100] Creating Layer inception_4c/relu_pool_proj
I0223 11:39:06.349396  6396 net.cpp:434] inception_4c/relu_pool_proj <- inception_4c/pool_proj
I0223 11:39:06.349400  6396 net.cpp:395] inception_4c/relu_pool_proj -> inception_4c/pool_proj (in-place)
I0223 11:39:06.349542  6396 net.cpp:150] Setting up inception_4c/relu_pool_proj
I0223 11:39:06.349548  6396 net.cpp:157] Top shape: 50 64 14 14 (627200)
I0223 11:39:06.349550  6396 net.cpp:165] Memory required for data: 2222623600
I0223 11:39:06.349552  6396 layer_factory.hpp:77] Creating layer inception_4c/output
I0223 11:39:06.349556  6396 net.cpp:100] Creating Layer inception_4c/output
I0223 11:39:06.349558  6396 net.cpp:434] inception_4c/output <- inception_4c/1x1
I0223 11:39:06.349562  6396 net.cpp:434] inception_4c/output <- inception_4c/3x3
I0223 11:39:06.349565  6396 net.cpp:434] inception_4c/output <- inception_4c/5x5
I0223 11:39:06.349568  6396 net.cpp:434] inception_4c/output <- inception_4c/pool_proj
I0223 11:39:06.349571  6396 net.cpp:408] inception_4c/output -> inception_4c/output
I0223 11:39:06.349596  6396 net.cpp:150] Setting up inception_4c/output
I0223 11:39:06.349599  6396 net.cpp:157] Top shape: 50 512 14 14 (5017600)
I0223 11:39:06.349601  6396 net.cpp:165] Memory required for data: 2242694000
I0223 11:39:06.349603  6396 layer_factory.hpp:77] Creating layer inception_4c/output_inception_4c/output_0_split
I0223 11:39:06.349607  6396 net.cpp:100] Creating Layer inception_4c/output_inception_4c/output_0_split
I0223 11:39:06.349611  6396 net.cpp:434] inception_4c/output_inception_4c/output_0_split <- inception_4c/output
I0223 11:39:06.349614  6396 net.cpp:408] inception_4c/output_inception_4c/output_0_split -> inception_4c/output_inception_4c/output_0_split_0
I0223 11:39:06.349618  6396 net.cpp:408] inception_4c/output_inception_4c/output_0_split -> inception_4c/output_inception_4c/output_0_split_1
I0223 11:39:06.349622  6396 net.cpp:408] inception_4c/output_inception_4c/output_0_split -> inception_4c/output_inception_4c/output_0_split_2
I0223 11:39:06.349627  6396 net.cpp:408] inception_4c/output_inception_4c/output_0_split -> inception_4c/output_inception_4c/output_0_split_3
I0223 11:39:06.349681  6396 net.cpp:150] Setting up inception_4c/output_inception_4c/output_0_split
I0223 11:39:06.349690  6396 net.cpp:157] Top shape: 50 512 14 14 (5017600)
I0223 11:39:06.349694  6396 net.cpp:157] Top shape: 50 512 14 14 (5017600)
I0223 11:39:06.349696  6396 net.cpp:157] Top shape: 50 512 14 14 (5017600)
I0223 11:39:06.349699  6396 net.cpp:157] Top shape: 50 512 14 14 (5017600)
I0223 11:39:06.349700  6396 net.cpp:165] Memory required for data: 2322975600
I0223 11:39:06.349704  6396 layer_factory.hpp:77] Creating layer inception_4d/1x1
I0223 11:39:06.349709  6396 net.cpp:100] Creating Layer inception_4d/1x1
I0223 11:39:06.349711  6396 net.cpp:434] inception_4d/1x1 <- inception_4c/output_inception_4c/output_0_split_0
I0223 11:39:06.349715  6396 net.cpp:408] inception_4d/1x1 -> inception_4d/1x1
I0223 11:39:06.350977  6396 net.cpp:150] Setting up inception_4d/1x1
I0223 11:39:06.350986  6396 net.cpp:157] Top shape: 50 112 14 14 (1097600)
I0223 11:39:06.350987  6396 net.cpp:165] Memory required for data: 2327366000
I0223 11:39:06.350992  6396 layer_factory.hpp:77] Creating layer inception_4d/relu_1x1
I0223 11:39:06.350997  6396 net.cpp:100] Creating Layer inception_4d/relu_1x1
I0223 11:39:06.351001  6396 net.cpp:434] inception_4d/relu_1x1 <- inception_4d/1x1
I0223 11:39:06.351003  6396 net.cpp:395] inception_4d/relu_1x1 -> inception_4d/1x1 (in-place)
I0223 11:39:06.351446  6396 net.cpp:150] Setting up inception_4d/relu_1x1
I0223 11:39:06.351455  6396 net.cpp:157] Top shape: 50 112 14 14 (1097600)
I0223 11:39:06.351457  6396 net.cpp:165] Memory required for data: 2331756400
I0223 11:39:06.351460  6396 layer_factory.hpp:77] Creating layer inception_4d/3x3_reduce
I0223 11:39:06.351465  6396 net.cpp:100] Creating Layer inception_4d/3x3_reduce
I0223 11:39:06.351469  6396 net.cpp:434] inception_4d/3x3_reduce <- inception_4c/output_inception_4c/output_0_split_1
I0223 11:39:06.351472  6396 net.cpp:408] inception_4d/3x3_reduce -> inception_4d/3x3_reduce
I0223 11:39:06.352788  6396 net.cpp:150] Setting up inception_4d/3x3_reduce
I0223 11:39:06.352810  6396 net.cpp:157] Top shape: 50 144 14 14 (1411200)
I0223 11:39:06.352819  6396 net.cpp:165] Memory required for data: 2337401200
I0223 11:39:06.352824  6396 layer_factory.hpp:77] Creating layer inception_4d/relu_3x3_reduce
I0223 11:39:06.352829  6396 net.cpp:100] Creating Layer inception_4d/relu_3x3_reduce
I0223 11:39:06.352833  6396 net.cpp:434] inception_4d/relu_3x3_reduce <- inception_4d/3x3_reduce
I0223 11:39:06.352836  6396 net.cpp:395] inception_4d/relu_3x3_reduce -> inception_4d/3x3_reduce (in-place)
I0223 11:39:06.352980  6396 net.cpp:150] Setting up inception_4d/relu_3x3_reduce
I0223 11:39:06.352985  6396 net.cpp:157] Top shape: 50 144 14 14 (1411200)
I0223 11:39:06.352988  6396 net.cpp:165] Memory required for data: 2343046000
I0223 11:39:06.352990  6396 layer_factory.hpp:77] Creating layer inception_4d/3x3
I0223 11:39:06.352996  6396 net.cpp:100] Creating Layer inception_4d/3x3
I0223 11:39:06.352999  6396 net.cpp:434] inception_4d/3x3 <- inception_4d/3x3_reduce
I0223 11:39:06.353004  6396 net.cpp:408] inception_4d/3x3 -> inception_4d/3x3
I0223 11:39:06.357771  6396 net.cpp:150] Setting up inception_4d/3x3
I0223 11:39:06.357789  6396 net.cpp:157] Top shape: 50 288 14 14 (2822400)
I0223 11:39:06.357791  6396 net.cpp:165] Memory required for data: 2354335600
I0223 11:39:06.357800  6396 layer_factory.hpp:77] Creating layer inception_4d/relu_3x3
I0223 11:39:06.357805  6396 net.cpp:100] Creating Layer inception_4d/relu_3x3
I0223 11:39:06.357811  6396 net.cpp:434] inception_4d/relu_3x3 <- inception_4d/3x3
I0223 11:39:06.357817  6396 net.cpp:395] inception_4d/relu_3x3 -> inception_4d/3x3 (in-place)
I0223 11:39:06.357998  6396 net.cpp:150] Setting up inception_4d/relu_3x3
I0223 11:39:06.358005  6396 net.cpp:157] Top shape: 50 288 14 14 (2822400)
I0223 11:39:06.358007  6396 net.cpp:165] Memory required for data: 2365625200
I0223 11:39:06.358009  6396 layer_factory.hpp:77] Creating layer inception_4d/5x5_reduce
I0223 11:39:06.358017  6396 net.cpp:100] Creating Layer inception_4d/5x5_reduce
I0223 11:39:06.358021  6396 net.cpp:434] inception_4d/5x5_reduce <- inception_4c/output_inception_4c/output_0_split_2
I0223 11:39:06.358039  6396 net.cpp:408] inception_4d/5x5_reduce -> inception_4d/5x5_reduce
I0223 11:39:06.359227  6396 net.cpp:150] Setting up inception_4d/5x5_reduce
I0223 11:39:06.359236  6396 net.cpp:157] Top shape: 50 32 14 14 (313600)
I0223 11:39:06.359238  6396 net.cpp:165] Memory required for data: 2366879600
I0223 11:39:06.359243  6396 layer_factory.hpp:77] Creating layer inception_4d/relu_5x5_reduce
I0223 11:39:06.359247  6396 net.cpp:100] Creating Layer inception_4d/relu_5x5_reduce
I0223 11:39:06.359251  6396 net.cpp:434] inception_4d/relu_5x5_reduce <- inception_4d/5x5_reduce
I0223 11:39:06.359254  6396 net.cpp:395] inception_4d/relu_5x5_reduce -> inception_4d/5x5_reduce (in-place)
I0223 11:39:06.359688  6396 net.cpp:150] Setting up inception_4d/relu_5x5_reduce
I0223 11:39:06.359699  6396 net.cpp:157] Top shape: 50 32 14 14 (313600)
I0223 11:39:06.359704  6396 net.cpp:165] Memory required for data: 2368134000
I0223 11:39:06.359706  6396 layer_factory.hpp:77] Creating layer inception_4d/5x5
I0223 11:39:06.359714  6396 net.cpp:100] Creating Layer inception_4d/5x5
I0223 11:39:06.359719  6396 net.cpp:434] inception_4d/5x5 <- inception_4d/5x5_reduce
I0223 11:39:06.359724  6396 net.cpp:408] inception_4d/5x5 -> inception_4d/5x5
I0223 11:39:06.361027  6396 net.cpp:150] Setting up inception_4d/5x5
I0223 11:39:06.361035  6396 net.cpp:157] Top shape: 50 64 14 14 (627200)
I0223 11:39:06.361038  6396 net.cpp:165] Memory required for data: 2370642800
I0223 11:39:06.361042  6396 layer_factory.hpp:77] Creating layer inception_4d/relu_5x5
I0223 11:39:06.361047  6396 net.cpp:100] Creating Layer inception_4d/relu_5x5
I0223 11:39:06.361050  6396 net.cpp:434] inception_4d/relu_5x5 <- inception_4d/5x5
I0223 11:39:06.361054  6396 net.cpp:395] inception_4d/relu_5x5 -> inception_4d/5x5 (in-place)
I0223 11:39:06.361196  6396 net.cpp:150] Setting up inception_4d/relu_5x5
I0223 11:39:06.361204  6396 net.cpp:157] Top shape: 50 64 14 14 (627200)
I0223 11:39:06.361207  6396 net.cpp:165] Memory required for data: 2373151600
I0223 11:39:06.361209  6396 layer_factory.hpp:77] Creating layer inception_4d/pool
I0223 11:39:06.361213  6396 net.cpp:100] Creating Layer inception_4d/pool
I0223 11:39:06.361217  6396 net.cpp:434] inception_4d/pool <- inception_4c/output_inception_4c/output_0_split_3
I0223 11:39:06.361219  6396 net.cpp:408] inception_4d/pool -> inception_4d/pool
I0223 11:39:06.361260  6396 net.cpp:150] Setting up inception_4d/pool
I0223 11:39:06.361265  6396 net.cpp:157] Top shape: 50 512 14 14 (5017600)
I0223 11:39:06.361268  6396 net.cpp:165] Memory required for data: 2393222000
I0223 11:39:06.361269  6396 layer_factory.hpp:77] Creating layer inception_4d/pool_proj
I0223 11:39:06.361275  6396 net.cpp:100] Creating Layer inception_4d/pool_proj
I0223 11:39:06.361277  6396 net.cpp:434] inception_4d/pool_proj <- inception_4d/pool
I0223 11:39:06.361282  6396 net.cpp:408] inception_4d/pool_proj -> inception_4d/pool_proj
I0223 11:39:06.362491  6396 net.cpp:150] Setting up inception_4d/pool_proj
I0223 11:39:06.362499  6396 net.cpp:157] Top shape: 50 64 14 14 (627200)
I0223 11:39:06.362502  6396 net.cpp:165] Memory required for data: 2395730800
I0223 11:39:06.362506  6396 layer_factory.hpp:77] Creating layer inception_4d/relu_pool_proj
I0223 11:39:06.362511  6396 net.cpp:100] Creating Layer inception_4d/relu_pool_proj
I0223 11:39:06.362514  6396 net.cpp:434] inception_4d/relu_pool_proj <- inception_4d/pool_proj
I0223 11:39:06.362519  6396 net.cpp:395] inception_4d/relu_pool_proj -> inception_4d/pool_proj (in-place)
I0223 11:39:06.362717  6396 net.cpp:150] Setting up inception_4d/relu_pool_proj
I0223 11:39:06.362722  6396 net.cpp:157] Top shape: 50 64 14 14 (627200)
I0223 11:39:06.362725  6396 net.cpp:165] Memory required for data: 2398239600
I0223 11:39:06.362727  6396 layer_factory.hpp:77] Creating layer inception_4d/output
I0223 11:39:06.362731  6396 net.cpp:100] Creating Layer inception_4d/output
I0223 11:39:06.362733  6396 net.cpp:434] inception_4d/output <- inception_4d/1x1
I0223 11:39:06.362746  6396 net.cpp:434] inception_4d/output <- inception_4d/3x3
I0223 11:39:06.362748  6396 net.cpp:434] inception_4d/output <- inception_4d/5x5
I0223 11:39:06.362751  6396 net.cpp:434] inception_4d/output <- inception_4d/pool_proj
I0223 11:39:06.362754  6396 net.cpp:408] inception_4d/output -> inception_4d/output
I0223 11:39:06.362782  6396 net.cpp:150] Setting up inception_4d/output
I0223 11:39:06.362785  6396 net.cpp:157] Top shape: 50 528 14 14 (5174400)
I0223 11:39:06.362787  6396 net.cpp:165] Memory required for data: 2418937200
I0223 11:39:06.362789  6396 layer_factory.hpp:77] Creating layer loss2/ave_pool
I0223 11:39:06.362794  6396 net.cpp:100] Creating Layer loss2/ave_pool
I0223 11:39:06.362797  6396 net.cpp:434] loss2/ave_pool <- inception_4d/output
I0223 11:39:06.362800  6396 net.cpp:408] loss2/ave_pool -> loss2/ave_pool
I0223 11:39:06.362954  6396 net.cpp:150] Setting up loss2/ave_pool
I0223 11:39:06.362960  6396 net.cpp:157] Top shape: 50 528 4 4 (422400)
I0223 11:39:06.362962  6396 net.cpp:165] Memory required for data: 2420626800
I0223 11:39:06.362965  6396 layer_factory.hpp:77] Creating layer loss2/conv
I0223 11:39:06.362972  6396 net.cpp:100] Creating Layer loss2/conv
I0223 11:39:06.362974  6396 net.cpp:434] loss2/conv <- loss2/ave_pool
I0223 11:39:06.362978  6396 net.cpp:408] loss2/conv -> loss2/conv
I0223 11:39:06.364322  6396 net.cpp:150] Setting up loss2/conv
I0223 11:39:06.364331  6396 net.cpp:157] Top shape: 50 128 4 4 (102400)
I0223 11:39:06.364333  6396 net.cpp:165] Memory required for data: 2421036400
I0223 11:39:06.364337  6396 layer_factory.hpp:77] Creating layer loss2/relu_conv
I0223 11:39:06.364342  6396 net.cpp:100] Creating Layer loss2/relu_conv
I0223 11:39:06.364346  6396 net.cpp:434] loss2/relu_conv <- loss2/conv
I0223 11:39:06.364348  6396 net.cpp:395] loss2/relu_conv -> loss2/conv (in-place)
I0223 11:39:06.364785  6396 net.cpp:150] Setting up loss2/relu_conv
I0223 11:39:06.364794  6396 net.cpp:157] Top shape: 50 128 4 4 (102400)
I0223 11:39:06.364796  6396 net.cpp:165] Memory required for data: 2421446000
I0223 11:39:06.364799  6396 layer_factory.hpp:77] Creating layer loss2/fc
I0223 11:39:06.364804  6396 net.cpp:100] Creating Layer loss2/fc
I0223 11:39:06.364806  6396 net.cpp:434] loss2/fc <- loss2/conv
I0223 11:39:06.364810  6396 net.cpp:408] loss2/fc -> loss2/fc
I0223 11:39:06.377873  6396 net.cpp:150] Setting up loss2/fc
I0223 11:39:06.377888  6396 net.cpp:157] Top shape: 50 1024 (51200)
I0223 11:39:06.377892  6396 net.cpp:165] Memory required for data: 2421650800
I0223 11:39:06.377897  6396 layer_factory.hpp:77] Creating layer loss2/relu_fc
I0223 11:39:06.377904  6396 net.cpp:100] Creating Layer loss2/relu_fc
I0223 11:39:06.377908  6396 net.cpp:434] loss2/relu_fc <- loss2/fc
I0223 11:39:06.377912  6396 net.cpp:395] loss2/relu_fc -> loss2/fc (in-place)
I0223 11:39:06.378106  6396 net.cpp:150] Setting up loss2/relu_fc
I0223 11:39:06.378111  6396 net.cpp:157] Top shape: 50 1024 (51200)
I0223 11:39:06.378113  6396 net.cpp:165] Memory required for data: 2421855600
I0223 11:39:06.378116  6396 layer_factory.hpp:77] Creating layer loss2/drop_fc
I0223 11:39:06.378120  6396 net.cpp:100] Creating Layer loss2/drop_fc
I0223 11:39:06.378123  6396 net.cpp:434] loss2/drop_fc <- loss2/fc
I0223 11:39:06.378126  6396 net.cpp:395] loss2/drop_fc -> loss2/fc (in-place)
I0223 11:39:06.378152  6396 net.cpp:150] Setting up loss2/drop_fc
I0223 11:39:06.378156  6396 net.cpp:157] Top shape: 50 1024 (51200)
I0223 11:39:06.378159  6396 net.cpp:165] Memory required for data: 2422060400
I0223 11:39:06.378160  6396 layer_factory.hpp:77] Creating layer loss2/classifier
I0223 11:39:06.378165  6396 net.cpp:100] Creating Layer loss2/classifier
I0223 11:39:06.378168  6396 net.cpp:434] loss2/classifier <- loss2/fc
I0223 11:39:06.378172  6396 net.cpp:408] loss2/classifier -> loss2/classifier
I0223 11:39:06.389250  6396 net.cpp:150] Setting up loss2/classifier
I0223 11:39:06.389267  6396 net.cpp:157] Top shape: 50 1901 (95050)
I0223 11:39:06.389271  6396 net.cpp:165] Memory required for data: 2422440600
I0223 11:39:06.389291  6396 layer_factory.hpp:77] Creating layer loss2/classifier_loss2/classifier_0_split
I0223 11:39:06.389297  6396 net.cpp:100] Creating Layer loss2/classifier_loss2/classifier_0_split
I0223 11:39:06.389302  6396 net.cpp:434] loss2/classifier_loss2/classifier_0_split <- loss2/classifier
I0223 11:39:06.389307  6396 net.cpp:408] loss2/classifier_loss2/classifier_0_split -> loss2/classifier_loss2/classifier_0_split_0
I0223 11:39:06.389313  6396 net.cpp:408] loss2/classifier_loss2/classifier_0_split -> loss2/classifier_loss2/classifier_0_split_1
I0223 11:39:06.389384  6396 net.cpp:150] Setting up loss2/classifier_loss2/classifier_0_split
I0223 11:39:06.389389  6396 net.cpp:157] Top shape: 50 1901 (95050)
I0223 11:39:06.389391  6396 net.cpp:157] Top shape: 50 1901 (95050)
I0223 11:39:06.389394  6396 net.cpp:165] Memory required for data: 2423201000
I0223 11:39:06.389395  6396 layer_factory.hpp:77] Creating layer accuracy
I0223 11:39:06.389402  6396 net.cpp:100] Creating Layer accuracy
I0223 11:39:06.389405  6396 net.cpp:434] accuracy <- loss2/classifier_loss2/classifier_0_split_0
I0223 11:39:06.389408  6396 net.cpp:434] accuracy <- label_data_1_split_0
…
